pretrained_models/PSnet/frequency_counting_psnet.pth (torch_old, 811193 bytes, 232 tensors)

counter.0.weight f4 [32, 1, 25]
-0.08695509 -0.100053355 -0.08927528 0.11160258 0.07127469 -0.15919186 -0.01617772 0.21537107
-0.0857323 -0.029693266 -0.15164053 -0.048120804 -0.16387473 0.04658115 -0.09098676 -0.086456336
0.12452258 0.072698124 0.14689787 0.007061351 -0.066134624 0.19648825 0.10742864 0.19864424
-0.007234885 -0.107317805 0.10781279 0.062143687 -0.013710149 0.20646727 -0.16283782 -0.037174787
-0.10296817 0.16853853 0.2238831 -0.008064086 -0.03902931 0.18448152 -0.007839941 -0.0077327555
-0.037985843 -0.09057469 -0.21239042 -0.077433966 -0.042861637 0.16531272 0.16518311 -0.19431801
-0.025263794 0.16672806 0.03849335 0.023183733 -0.10979072 0.014510842 -0.055313967 0.012052853
-0.20301197 0.15044715 -0.0934798 0.027978372 -0.071158215 0.15885076 -0.013318445 0.13447028
0.18940124 0.18919845 -0.021849703 0.19029634 -0.17803161 -0.12433124 0.10084555 0.19112514
0.151762 0.14772417 0.13326609 0.0043582446 0.14448959 -0.004051317 0.10621535 0.12523977
0.0014601983 -0.036058284 -0.010530199 -0.13140996 0.09386746 0.1955575 -0.13125403 -0.0628879
0.0021502918 0.11054474 -0.11823062 -0.009386616 -0.18418527 -0.09444537 0.07840483 0.12571372
0.11133716 -0.12745906 0.1106052 -0.13568617 -0.050862618 0.04289347 0.057201285 0.032661457
-0.08565504 0.1599481 -0.01367935 0.052245647 -0.036950037 0.13878362 -0.035433907 0.13915496
-0.025196485 -0.05801634 -0.021037605 0.19817485 -0.0004480998 0.11995374 -0.18769434 0.11278179
0.13602412 0.18119054 0.01525922 -0.056872793 -0.033288874 -0.020579087 -0.08535718 -0.040607054
0.16167068 0.045098267 -0.0013885798 0.060583346 0.016019978 -0.028243788 -0.0036285785 -0.023545606
0.1212349 -0.13985267 -0.111070774 -0.17818433 -0.1200966 -0.11990563 0.15039538 -0.05145546
0.05406018 0.027601335 0.014864598 -0.12615833 0.11743231 0.2029414 0.20034005 0.18458183
0.19503386 -0.008716066 0.14507285 -0.17683618 0.08465397 0.0027388951 -0.07228995 0.047655806
-0.027606301 0.12053318 -0.21532105 -0.042323656 -0.1573965 -0.008982795 0.035867106 -0.06867731
0.17351568 -0.0031095853 0.06839148 0.1474982 -0.18606915 -0.046328675 -0.21159244 0.050036754
0.09579064 -0.03427577 0.033690795 0.030326663 -0.012831658 0.16378342 -0.15438172 -0.010883401
0.030105881 -0.104567826 -0.1590902 -0.047738064 0.07276038 0.050220568 0.1674708 -0.088975176
-0.08932398 0.0013827434 0.04720005 -0.18180594 0.031847168 -0.17240994 -0.043514363 0.19377886
-0.027479695 0.20411652 -0.08268537 -0.1126919 -0.016304066 -0.08052572 0.20238979 0.18585978
-0.13614412 -0.13032492 -0.16627303 -0.114637375 -0.15333936 -0.08353272 0.18099524 0.03929022
-0.09727742 0.17255636 0.023647051 0.11024482 0.10486601 -0.11589171 -0.014772996 -0.17865768
-0.07369356 0.09392463 0.16526854 -0.120938286 0.12944598 -0.16552177 0.07302277 -0.15776838
0.11361667 -0.14460105 0.034131978 -0.050382867 0.047251206 -0.16126193 -0.01119252 0.15614647
0.2300079 -0.03575342 0.026243849 -0.0410138 0.16259955 -0.11787795 0.028931834 -0.12864052
-0.053456247 -0.19361535 -0.10394937 -0.13674 -0.1250401 -0.14223433 0.0063631954 0.13048306
00000000: 8315 b2bd c6e8 ccbd f5d5 b6bd e58f e43d
00000010: 77f8 913d 3103 23be 2387 84bc 3c8a 5c3e
00000020: 6b94 afbd 4b3f f3bc a847 1bbe 521a 45bd
00000030: c7ce 27be e0cb 3e3d 4457 babd 0510 b1bd
00000040: b205 ff3d c1e2 943d 656c 163e e862 e73b
00000050: 9771 87bd 3734 493e 8c03 dc3d 6569 4b3e
00000060: 9d12 edbb 70c9 dbbd f4cc dc3d 618a 7e3d
00000070: 88a0 60bc 286c 533e f5be 26be 9744 18bd
00000080: fae0 d2bd 5d95 2c3e 9d41 653e 3a1f 04bc
00000090: 33dd 1fbd b9e8 3c3e 1973 00bc 0e63 fdbb
000000a0: 0b97 1bbd 397f b9bd e07c 59be b395 9ebd
000000b0: af8f 2fbd bd47 293e c325 293e 4dfb 46be
000000c0: 04f6 cebc c3ba 2a3e 34ab 1d3d d0eb bd3c
000000d0: f5d9 e0bd e2be 6d3c e690 62bd 5479 453c
000000e0: 5fe2 4fbe d10e 1a3e 5672 bfbd e632 e53c
000000f0: 66bb 91bd c6a9 223e 9b35 5abc 94b2 093e
00000100: 66f2 413e 3dbd 413e 26fe b2bc 0bdd 423e
00000110: eb4d 36be 61a1 febd 1d88 ce3d 4fb6 433e
00000120: 7f67 1b3e 0145 173e e876 083e 9bcf 8e3b
00000130: 14f5 133e e9c0 84bb 6f87 d93d db3e 003e
00000140: 2064 bf3a dab1 13bd db86 2cbc 5590 06be
00000150: 953d c03d 3a40 483e 7567 06be 5fcb 80bd
00000160: e9eb 0c3b 4865 e23d e522 f2bd 52ca 19bc
00000170: 109b 3cbe 936c c1bd b692 a03d 19bb 003e
00000180: bd04 e43d a184 02be fb84 e23d 51f1 0abe
00000190: 5255 50bd 10b1 2f3d e54b 6a3d 05c8 053d
000001a0: e96b afbd 6fc9 233e 5a1f 60bc 88ff 553d
000001b0: ec58 17bd 4b1d 0e3e 2523 11bd a37e 0e3e
000001c0: dc68 cebc 8ba2 6dbd 0e57 acbc 59ee 4a3e
000001d0: f0ee eab9 4eaa f53d f232 40be 24fa e63d
000001e0: e849 0b3e 038a 393e cf01 7a3c 72f3 68bd
000001f0: ea59 08bd 7995 a8bc bfcf aebd 9553 26bd
00000200: 008d 253e f6b8 383d 0201 b6ba 3e26 783d
00000210: 543c 833c 845f e7bc 72cd 6dbb b7e2 c0bc
00000220: 014a f83d 8a35 0fbe 1379 e3bd f475 36be
00000230: 35f5 f5bd 1591 f5bd 3f01 1a3e f6c2 52bd
00000240: 356e 5d3d 321c e23c a58a 733c a62f 01be
00000250: 5a80 f03d dfcf 4f3e f125 4d3e 0503 3d3e
00000260: f5b6 473e d5cd 0ebc fa8d 143e 8b14 35be
00000270: 105f ad3d 097f 333b c10c 94bd bc32 433d
00000280: 9c26 e2bc 1ada f63d 1f7d 5cbe 925b 2dbd
00000290: 8c2c 21be 932c 13bc 63e9 123d b1a6 8cbd
000002a0: 18ae 313e 2fca 4bbb d510 8c3d c509 173e
000002b0: e988 3ebe 23c3 3dbd b0ab 58be 57f3 4c3d
000002c0: e22d c43d c064 0cbd 5cff 093d 9f6f f83c
000002d0: e03b 52bc d7b6 273e 3e16 1ebe 4b50 32bc
000002e0: 9ca0 f63c a827 d6bd 8be8 22be fd88 43bd
000002f0: 6503 953d 15b4 4d3d 777d 2b3e 9e38 b6bd
00000300: 7eef b6bd 2b3d b53a d754 413d 562b 3abe
00000310: 2d72 023d 3b8c 30be 1e3c 32bd f76d 463e
00000320: 191d e1bc ec03 513e f356 a9bd 03cb e6bd
00000330: 1b90 85bc abea a4bd 453f 4f3e 0752 3e3e
00000340: 5d69 0bbe e573 05be 7a43 2abe 00c7 eabd
00000350: fe04 1dbe 3413 abbd d156 393e c8ee 203d
00000360: 6239 c7bd 9db2 303e 76b7 c13c 09c8 e13d
00000370: fec3 d63d a258 edbd 700a 72bc 0af2 36be
00000380: a6ec 96bd 8e5b c03d 283c 293e 7eae f7bd
00000390: 7d8d 043e 8a7e 29be f68c 953d 098e 21be
000003a0: dbaf e83d 4c12 14be f9cd 0b3d 445e 4ebd
000003b0: 7b8a 413d d921 25be d560 37bc dce4 1f3e
000003c0: 3187 6b3e 2e72 12bd 57fd d63c 16fe 27bd
000003d0: 7f80 263e ff69 f1bd 7402 ed3c 57ba 03be
000003e0: f0f4 5abd 1a43 46be 68e3 d4bd 9205 0cbe
000003f0: 830a 00be e0a5 11be 5a82 d03b 5a9d 053e

counter.0.bias f4 [32]
-0.09512389 0.11399589 -0.06392159 -0.026923869 0.06257361 0.068990625 0.029028405 -0.0032404542
-0.1942118 0.08290319 -0.073052704 -0.16783968 0.049853645 -0.15871358 -0.08089022 0.040488195
0.14106548 -0.06993822 0.09391897 -0.11417113 0.13039124 -0.17880481 0.14001341 -0.15484749
0.14928152 -0.15759781 0.14197725 -0.20914465 0.17244944 0.06632021 0.1382575 -0.07748632
00000000: 50d0 c2bd ad76 e93d 53e9 82bd 728f dcbc
00000010: 9826 803d f54a 8d3d facc ed3c cd5d 54bb
00000020: 75df 46be 26c9 a93d a89c 95bd 2ade 2bbe
00000030: 5633 4c3d d085 22be c6a9 a5bd f3d6 253d
00000040: 7873 103e c53b 8fbd 9758 c03d 8ed2 e9bd
00000050: 4885 053e 9c18 37be ad5f 0f3e 5790 1ebe
00000060: 41dd 183e 5261 21be 7c62 113e 042a 56be
00000070: 9696 303e e4d2 873d 6093 0d3e 26b1 9ebd

counter.1.weight f4 [32, 32, 3]
-0.048880525 -0.014436476 0.06587341 0.10202796 0.023425588 0.030586082 0.029335463 -0.0892412
-0.111859694 -0.06358724 0.04531091 -0.008434485 0.05075894 0.052066177 0.09379628 0.038326092
-0.00666482 0.069101684 0.096302174 -0.07811469 0.0123817455 -0.026803428 0.00582142 0.016251592
0.06084861 -0.021527773 -0.06919185 -0.02956307 -0.057922937 0.026913697 0.0021004195 0.10930817
0.053751267 -0.034530785 -0.03926265 -0.09175316 -0.05499053 -0.00059711066 -0.0044549266 -0.024534527
-0.04193331 0.025915157 -0.0694593 -0.029211827 0.08256953 -0.009481168 -0.09496591 0.06656064
0.07684877 -0.033459928 0.060229152 -0.08064884 -0.09038111 0.07216892 0.057067197 -0.062206116
-0.049620997 0.035479687 0.049696546 0.019555917 -0.112758934 0.13069412 -0.1269046 0.19995256
-0.0929854 -0.072391 -0.06997588 -0.025901532 0.07505262 0.0093131345 -0.053095955 -0.016841602
0.07651144 0.02670888 0.027922953 -0.027879037 -0.049390238 0.049055167 -0.08372209 0.0077729104
-0.0012962789 0.032934073 -0.041373815 -0.049267363 0.050938454 -0.07401724 -0.09056559 0.038041674
-0.018776972 -0.10280087 -0.11134992 0.051329173 -0.09164241 0.04034895 0.05269679 0.011029025
0.051394116 0.10393343 -0.0723907 -0.09023075 0.0407197 0.015065063 -0.035737216 0.09200303
0.08145257 0.023062797 0.007833209 0.0072500883 0.05460402 0.04776097 0.030026278 0.038128935
0.048824854 0.10957927 -0.053948026 0.03812499 0.097894 0.008418258 -0.044508792 0.07787922
0.00011370269 -0.11051216 -0.009674303 0.06641892 -0.06794936 -0.05411832 -0.0045786747 0.06751797
-0.0142771825 -0.11021096 -0.10352504 0.03463517 -0.01646638 -0.09067126 -0.10633678 -0.075391494
0.0028968665 -0.077507906 -0.06092918 -0.06510991 0.089439206 -0.12853055 -0.028130744 -0.00048760627
0.03963014 -0.06024943 0.08394289 0.048702125 -0.08044827 0.075300924 0.063213006 0.078456074
0.022970445 0.08709412 0.10737278 -0.005743957 0.07198366 0.1371516 -0.0681657 0.04871836
0.031118607 -0.027687617 0.019935917 0.045812402 -0.04716137 -0.042495538 0.07555185 0.092608
-0.01754605 0.052844226 -0.06233113 -0.09152467 0.039123427 0.030474534 0.02196351 -0.070231125
-0.10590957 -0.112428345 -0.030905332 -0.04310942 -0.03181946 -0.049554165 -0.090385005 0.029494535
0.022483047 0.07033678 0.071061864 -0.041900147 -0.06520634 0.0244541 -0.019472025 -0.040632684
-0.031426948 -0.053640947 -0.020452663 -0.0661391 0.08910477 -0.072925575 -0.015604475 -0.0548878
0.10865205 0.09654979 -0.09670869 0.03491828 -0.06551366 -0.01795014 -0.08777335 0.08042688
0.051147502 0.021397412 0.102901086 -0.0022632862 -0.015488969 -0.0050515924 0.07044904 -0.043504052
-0.024376856 -0.054770764 -0.060095333 -0.038696103 0.005080279 -0.029567627 -0.08996374 -0.0633931
0.05894485 0.10915868 -0.0650435 -0.09163756 0.066982634 0.04940499 -0.005043674 0.02157679
-0.09016434 -0.06929949 0.020312024 0.005444894 0.10598722 0.113887 -0.027717762 -0.025884457
-0.09218082 0.08983078 -0.06655568 -0.011478341 -0.0434837 0.029582027 0.08916019 0.10851034
0.010773275 -0.017100027 -0.11489696 0.088033594 0.056385923 -0.05167752 0.074159764 0.0028662188
00000000: f236 48bd f886 6cbc a3e8 863d 09f4 d03d
00000010: 05e7 bf3c aa8f fa3c ed50 f03c 17c4 b6bd
00000020: b216 e5bd 073a 82bd ef97 393d cb30 0abc
00000030: 9be8 4f3d 5843 553d 4418 c03d d2fb 1c3d
00000040: 9064 dabb 2f85 8d3d 133a c53d 98fa 9fbd
00000050: cedc 4a3c dd92 dbbc 9cc1 be3b 0f22 853c
00000060: 643c 793d 035b b0bc 75b4 8dbd 402e f2bc
00000070: 9a40 6dbd 1d7a dc3c 31a7 093b f6dc df3d
00000080: 4a2a 5c3d 2770 0dbd dfd1 20bd 15e9 bbbd
00000090: c03d 61bd 6b87 1cba a2fa 91bb a2fc c8bc
000000a0: 43c2 2bbd 064c d43c ad40 8ebd a44d efbc
000000b0: 371a a93d e756 1bbc 7d7d c2bd f250 883d
000000c0: e362 9d3d 470d 09bd d8b2 763d 382b a5bd
000000d0: bb19 b9bd 4ccd 933d 4bbf 693d d7cb 7ebd
000000e0: 633f 4bbd 2653 113d 9b8e 4b3d bb33 a03c
000000f0: 28ee e6bd aed4 053e 48f3 01be 5dc0 4c3e
00000100: 216f bebd bc41 94bd 844f 8fbd 732f d4bc
00000110: 30b5 993d 1e96 183c 257b 59bd 66f7 89bc
00000120: 08b2 9c3d 95cc da3c adbe e43c 9462 e4bc
00000130: 6b4d 4abd 12ee 483d 7d76 abbd e6b3 fe3b
00000140: e7e7 a9ba e1e5 063d 9777 29bd 93cc 49bd
00000150: d7a4 503d 5a96 97bd 747a b9bd 96d1 1b3d
00000160: 2ad2 99bc 4389 d2bd 6d0b e4bd 8a3e 523d
00000170: 04af bbbd f144 253d 97d8 573d 15b3 343c
00000180: a382 523d 0ddb d43d 9341 94bd e6ca b8bd
00000190: b3c9 263d 74d3 763c 3061 12bd 166c bc3d
000001a0: 9bd0 a63d 31ee bc3c dc56 003c 2692 ed3b
000001b0: 77a8 5f3d 02a1 433d abf9 f53c 162d 1c3d
000001c0: 92fc 473d 196b e03d 9bf8 5cbd f328 1c3d
000001d0: a67c c83d bcec 093c da4e 36bd 247f 9f3d
000001e0: ab73 ee38 3354 e2bd f880 1ebc a506 883d
000001f0: 0929 8bbd 2cab 5dbd b508 96bb dd46 8a3d
00000200: d8ea 69bc 49b6 e1bd f004 d4bd 9cdd 0d3d
00000210: 80e4 86bc dbb1 b9bd 19c7 d9bd db66 9abd
00000220: 5bd9 3d3b 77bc 9ebd e090 79bd 5858 85bd
00000230: e72b b73d 839d 03be 7272 e6bc 68a5 ffb9
00000240: 3753 223d 1bc8 76bd 40ea ab3d e17b 473d
00000250: 10c2 a4bd 5f37 9a3d d275 813d 94ad a03d
00000260: 842c bc3c 675e b23d 43e6 db3d ce37 bcbb
00000270: 2b6c 933d 7871 0c3e 759a 8bbd e78c 473d
00000280: 73ec fe3c 24d1 e2bc a650 a33c c9a5 3b3d
00000290: 482c 41bd cd0f 2ebd eeba 9a3d 43a9 bd3d
000002a0: bcbc 8fbc 3073 583d ed4e 7fbd 4971 bbbd
000002b0: e33f 203d bba5 f93c d2ec b33c 56d5 8fbd
000002c0: 1ee7 d8bd d540 e6bd 2e2d fdbc 8193 30bd
000002d0: 1f55 02bd 4ff9 4abd c61b b9bd 869e f13c
000002e0: 5e2e b83c bb0c 903d e288 913d 7d9f 2bbd
000002f0: e78a 85bd f753 c83c cc83 9fbc 756e 26bd
00000300: 8bb9 00bd 9cb6 5bbd 588c a7bc f073 87bd
00000310: 907c b63d 015a 95bd e9a9 7fbc 08d2 60bd
00000320: f784 de3d e5bb c53d 350f c6bd 7806 0f3d
00000330: 072c 86bd 2c0c 93bc 84c2 b3bd d9b6 a43d
00000340: 0b80 513d a049 af3c cebd d23d a453 14bb
00000350: 72c5 7dbc d487 a5bb 9647 903d 4e31 32bd
00000360: f9b1 c7bc 4f57 60bd 8626 76bd ce7f 1ebd
00000370: 7878 a63b cf37 f2bc e93e b8bd 3ed4 81bd
00000380: 2870 713d 968e df3d 8735 85bd 79ac bbbd
00000390: 312e 893d e35c 4a3d 6745 a5bb cfc1 b03c
000003a0: 15a8 b8bd e4ec 8dbd 6765 a63c 156b b23b
000003b0: d40f d93d 963d e93d 5c10 e3bc a40b d4bc
000003c0: 4cc9 bcbd 33f9 b73d 584e 88bd a70f 3cbc
000003d0: f71b 32bd 0256 f23c 9e99 b63d ab3a de3d
000003e0: 6482 303c 5b15 8cbc 194f ebbd f54a b43d
000003f0: edf4 663d cfab 53bd 13e1 973d 2cd7 3b3b

counter.2.weight f4 [32]
1.007957 0.98431903 1.0265985 1.0028083 0.975975 1.0626847 0.9933384 1.008234
0.9914891 1.0483423 0.9739108 1.0030158 0.96286833 1.0278461 0.9569318 0.98560697
1.0430872 0.9881712 0.9748679 0.9993833 1.0109669 0.99917746 0.9787654 1.0022142
0.98731333 1.0482836 1.0093468 1.0283216 0.9620754 0.99313784 0.97881943 1.0099515
00000000: bc04 813f 55fc 7b3f 9467 833f 065c 803f
00000010: 7fd9 793f 0d06 883f 6d4b 7e3f d00d 813f
00000020: 3bd2 7d3f 1530 863f 3852 793f d262 803f
00000030: 8a7e 763f 7690 833f 7cf9 743f bd50 7c3f
00000040: e283 853f caf8 7c3f f190 793f 95d7 7f3f
00000050: 5d67 813f 18ca 7f3f 5f90 7a3f 8e48 803f
00000060: 91c0 7c3f 282e 863f 4732 813f 0ba0 833f
00000070: 934a 763f 483e 7e3f e993 7a3f 1746 813f

counter.2.bias f4 [32]
0.032014962 -0.06426871 -0.011654827 0.060968127 -0.013865415 0.05535085 -0.004688108 0.010198609
0.006786891 0.034690924 -0.022176716 0.018945795 -0.02440198 0.0054584406 0.0076040565 0.01921406
0.03968537 -0.0082847 0.0027801676 0.041220237 0.0055377814 0.033188704 -0.014354163 -0.014839575
-0.0009541761 0.04159304 0.00083306833 0.12677671 0.007834714 0.016545812 -0.006869348 -0.021255393
00000000: 1f22 033d 509f 83bd e3f3 3ebc b7b9 793d
00000010: c42b 63bc 93b7 623d b39e 99bb 1118 273c
00000020: 9164 de3b 1218 0e3d f2ab b5bc 3634 9b3c
00000030: a9e6 c7bc b8dc b23b 732b f93b ce66 9d3c
00000040: 208d 223d 8dbc 07bc 7933 363b 8dd6 283d
00000050: 4776 b53b e1f0 073d b92d 6bbc b021 73bc
00000060: ad21 7aba 775d 2a3d 4562 5a3a c1d1 013e
00000070: 2c5d 003c 158b 873c 4518 e1bb ca1f aebc

counter.2.running_mean f4 [32]
0.033688538 0.09816322 0.084647216 0.07188074 -0.08330949 -0.14592525 0.13112497 0.02914968
-0.032147456 -0.086737774 -0.030037856 0.12242966 -0.109885186 -0.06513832 0.21929787 0.0932607
-0.016339205 0.08074862 0.061906286 -0.020931076 0.092473105 0.038976718 0.04401927 -0.083377264
-0.03290631 0.04367855 0.0074320743 -0.030544398 0.030390335 0.10223191 0.037477214 -0.04012161
00000000: fefc 093d cc09 c93d 855b ad3d 3636 933d
00000010: 2a9e aabd 6e6d 15be a045 063e 4fcb ee3c
00000020: 0dad 03bd 93a3 b1bd f311 f6bc 67bc fa3d
00000030: 7c0b e1bd 3d67 85bd 9f8f 603e 77ff be3d
00000040: ccd9 85bc 885f a53d 7291 7d3d a677 abbc
00000050: 8a62 bd3d 0da6 1f3d 8d4d 343d b3c1 aabd
00000060: c4c8 06bd 47e8 323d c288 f33b 3f38 fabc
00000070: 27f5 f83c f75e d13d b581 193d 8f56 24bd

counter.2.running_var f4 [32]
0.0025861596 0.012387154 0.0066374936 0.0024102146 0.011527874 0.0022651397 0.011459687 0.004118511
0.006833158 0.01082874 0.012172415 0.003060316 0.006145211 0.009666206 0.0075672455 0.0036047676
0.008002001 0.009773972 0.0068969307 0.009594707 0.0048575555 0.006527221 0.0037830202 0.0069607683
0.0054889806 0.0018409959 0.0027708875 0.00093582843 0.0074741733 0.0038970073 0.008727283 0.0023883204
00000000: 8f7c 293b 7df3 4a3c 557f d93b b1f4 1d3b
00000010: 68df 3c3c bd72 143b 69c1 3b3c 93f4 863b
00000020: afe8 df3b 076b 313c cf6e 473c 958f 483b
00000030: c45d c93b 025f 1e3c a8f6 f73b f73d 6c3b
00000040: d31a 033c 0323 203c a6ff e13b 1e33 1d3c
00000050: 212c 9f3b 4ce2 d53b 8cec 773b 2817 e43b
00000060: e8dc b33b 924d f13a c797 353b 6252 753a
00000070: e9e9 f43b ef64 7f3b e1fc 0e3c 5e85 1c3b

counter.4.weight f4 [32, 32, 3]
0.01628978 -0.13321334 -0.014525256 -0.015510046 -0.08102402 -0.051545337 0.07387565 0.01396492
0.031887095 -0.041294068 0.05798887 0.026096512 -0.040809043 -0.023640607 -0.11712178 -0.06421066
-0.13143428 0.03161444 -0.07270391 0.01780243 0.087508716 -0.10743915 -0.010177208 0.06342672
0.023293978 0.0720265 0.005086569 -0.077168964 0.05933536 0.05744731 0.060173918 0.08402314
0.0587843 0.019429337 0.033516902 -0.089236565 -0.012002531 0.032913964 -0.12134079 -0.12690727
-0.07695843 -0.06041198 -0.095794044 0.056808256 0.08121166 -0.108333856 0.08722689 -0.009452659
-0.017678346 0.042589836 0.01626499 -0.03295932 0.017242383 -0.09341123 0.026739184 -0.09507426
0.08842478 -0.01969191 0.0018039652 -0.09186893 -0.08614799 0.05946657 0.101997115 -0.033184517
-0.09567564 -0.06667909 -0.061738577 -0.090173066 0.022216463 -0.03255107 0.01662963 0.09348414
0.038492654 0.023217387 -0.03309138 -0.14067554 0.05684391 0.045817837 -0.09336679 -0.11147304
0.0025718533 0.062282212 0.037356026 0.00726962 -0.067673266 -0.019718366 0.01653 -0.024860296
0.027438786 -0.0049026073 0.08134864 0.061677035 -0.08853357 0.005712614 -0.020516329 -0.04781798
0.051941372 0.053636126 -0.13740236 0.04678334 0.023513123 -0.10633241 0.036337733 0.03745107
0.03834392 0.04721362 -0.083544396 0.023862178 -0.0666364 -0.029717978 0.023648536 -0.038265802
0.11640904 -0.037403695 0.07930489 -0.031784806 0.06371909 -0.06290568 -0.048250128 -0.07495417
0.1018231 -0.14607108 -0.012853972 -0.0019088379 -0.08251235 0.07545009 -0.06684257 -0.09785684
-0.039843876 0.08737918 0.01715625 -0.09105819 -0.021066483 -0.057053383 0.026676152 0.045242343
0.011167263 -0.13210195 0.08843794 0.0030992387 0.056973767 0.032841206 -0.10997783 0.06227996
0.04739283 -0.049948253 -0.03196246 -0.059271462 -0.004012649 -0.025719428 0.06353159 -0.050336197
-0.06015235 -0.029600643 0.015125146 -0.07590835 -0.11883914 -0.10839238 0.03263322 0.0786277
0.027472856 0.026892014 -0.08861552 -0.018650439 0.059564423 -0.054286838 0.108563155 0.058113728
0.06375515 -0.030379502 0.061741572 -0.0069958656 -0.062402442 -0.043114536 -0.08732473 0.059655875
-0.09753087 -0.0814003 -0.11097644 0.0011802122 -0.03055114 0.057008516 0.025847463 -0.116026625
0.07035209 -0.05608033 0.056319065 -0.04484641 -0.043035485 -0.030092211 -0.028888075 0.011652239
0.069230154 -0.0036462178 0.09476087 0.05359715 0.013109884 0.11398523 -0.1182448 -0.054173563
-0.1403097 0.09433559 0.10967196 0.082930155 -0.006583601 0.006067018 -0.078279376 0.06963842
0.1297271 0.12080112 0.055852 0.032120276 0.079317756 0.028012054 0.05217375 0.08757597
-0.030197836 -0.04940779 -0.036314793 0.04598848 -0.023183232 0.048233245 -0.052186392 -0.0013965236
-0.07686358 0.029516717 -0.001095059 -0.06841839 -0.07058749 0.052523013 -0.02722916 -0.05967532
0.0071803983 0.08084684 -0.05408611 -0.03779433 -0.09179741 0.030992476 0.0464117 0.02975278
5.957595e-05 0.06510006 0.008426728 0.04008096 -0.02890197 0.069652766 0.018978396 -0.0013961962
0.0713741 0.017070381 -0.008490667 -0.02995922 0.107990175 0.010433226 -0.046944764 0.044706725
00000000: 2572 853c 1469 08be 57fb 6dbc d91d 7ebc
00000010: ecef a5bd 3421 53bd 1e4c 973d 1fcd 643c
00000020: 0b9c 023d f823 29bd bd85 6d3d 5ac8 d53c
00000030: 6227 27bd f2a9 c1bc 8bdd efbd e180 83bd
00000040: b596 06be 257e 013d cae5 94bd 67d6 913c
00000050: c537 b33d 0f09 dcbd 4ebe 26bc dee5 813d
00000060: 03d3 be3c a182 933d 3cad a63b c30a 9ebd
00000070: a209 733d df4d 6b3d ed78 763d 5314 ac3d
00000080: cec7 703d 462a 9f3c 0549 093d a9c1 b6bd
00000090: 44a6 44bc cbd0 063d 8581 f8bd fbf3 01be
000000a0: 629c 9dbd 8d72 77bd ab2f c4bd c6af 683d
000000b0: 4c52 a63d 24de ddbd 03a4 b23d 53df 1abc
000000c0: 2ed2 90bc ae72 2e3d 283e 853c 5a00 07bd
000000d0: e63f 8d3c 634e bfbd 220c db3c 4bb6 c2bd
000000e0: 0d18 b53d ee50 a1bc 0773 ec3a c725 bcbd
000000f0: 5b6e b0bd 3893 733d dde3 d03d 7dec 07bd
00000100: 97f1 c3bd 0c8f 88bd 97e1 7cbd a8ac b8bd
00000110: 4dff b53c 4554 05bd dd3a 883c 9d74 bf3d
00000120: 79aa 1d3d 6432 be3c d48a 07bd 400d 10be
00000130: 29d5 683d 7cab 3b3d 1637 bfbd fa4b e4bd
00000140: 8a8c 283b a21b 7f3d a202 193d fe35 ee3b
00000150: 4898 8abd 6988 a1bc ec69 873c d2a7 cbbc
00000160: 4ec7 e03c 0da6 a0bb 1e9a a63d 0fa1 7c3d
00000170: 1751 b5bd e130 bb3b dc11 a8bc c9dc 43bd
00000180: 7ac0 543d 8eb1 5b3d 34b3 0cbe e39f 3f3d
00000190: 989e c03c cec4 d9bd e0d6 143d 4b66 193d
000001a0: 840e 1d3d 1263 413d 5319 abbd 9d7a c33c
000001b0: aa78 88bd 1e73 f3bc 93ba c13c 9abc 1cbd
000001c0: dd67 ee3d 9e34 19bd 9a6a a23d c930 02bd
000001d0: 277f 823d b1d4 80bd eda1 45bd 9281 99bd
000001e0: a188 d03d a893 15be 7799 52bc f931 faba
000001f0: 3cfc a8bd 9485 9a3d c2e4 88bd 2b69 c8bd
00000200: 5533 23bd dbf3 b23d 448b 8c3c b77c babd
00000210: 9e93 acbc cfb0 69bd f287 da3c 0950 393d
00000220: e5f6 363c bc45 07be f31e b53d 991c 4b3b
00000230: 535d 693d 8084 063d 0e3c e1bd 4519 7f3d
00000240: fc1e 423d 8a96 4cbd 12eb 02bd a2c6 72bd
00000250: 8a7c 83bb 8db1 d2bc da1c 823d 542d 4ebd
00000260: 5062 76bd 0c7d f2bc 76cf 773c d675 9bbd
00000270: ef61 f3bd d3fc ddbd 69aa 053d 8f07 a13d
00000280: c10e e13c a44c dc3c 0e7c b5bd cec8 98bc
00000290: d3f9 733d e05b 5ebd 5c56 de3d a908 6e3d
000002a0: 0f92 823d 6fde f8bc bbe4 7c3d 933d e5bb
000002b0: b499 7fbd de98 30bd 4fd7 b2bd b859 743d
000002c0: 44be c7bd 33b5 a6bd 9e47 e3bd 5ab1 9a3a
000002d0: 6246 fabc c381 693d 0fbe d33c 5e9f edbd
000002e0: c214 903d 7db4 65bd d2ae 663d dfb0 37bd
000002f0: fa45 30bd f183 f6bc afa6 ecbc 08e9 3e3c
00000300: 8ac8 8d3d 62f5 6ebb fd11 c23d af88 5b3d
00000310: d7ca 563c 1771 e93d 542a f2bd 19e5 5dbd
00000320: 59ad 0fbe 0533 c13d b19b e03d 49d7 a93d
00000330: 3fbb d7bb d6cd c63b f050 a0bd 979e 8e3d
00000340: 2ed7 043e 9466 f73d 11c5 643d 8d90 033d
00000350: 5971 a23d 8979 e53c 24b4 553d 085b b33d
00000360: 7461 f7bc d35f 4abd d2be 14bd 6b5e 3c3d
00000370: c3ea bdbc 3990 453d 66c1 55bd 8e0b b7ba
00000380: a76a 9dbd 0bcd f13c 1588 8fba f11e 8cbd
00000390: 2d90 90bd 5f22 573d b00f dfbc 1c6e 74bd
000003a0: 8c49 eb3b 0793 a53d 6689 5dbd 3ace 1abd
000003b0: 4800 bcbd efe3 fd3c 321a 3e3d 1abc f33c
000003c0: 30e1 7938 2e53 853d 4210 0a3c ef2b 243d
000003d0: d3c3 ecbc 1ca6 8e3d 9578 9b3c 9200 b7ba
000003e0: 962c 923d 2fd7 8b3c 701c 0bbc 0a6d f5bc
000003f0: f429 dd3d 1ff0 2a3c 2749 40bd 661e 373d

counter.5.weight f4 [32]
0.98381376 1.0320387 1.0088024 1.0018253 0.9858908 0.9756825 1.0238677 1.0114563
0.99895066 1.0013351 1.0144689 1.0283524 1.0282116 1.0066599 1.0240507 0.9803828
0.9945962 1.016915 1.0139111 0.99370277 0.98604935 1.0026724 1.0767471 0.99028236
0.9630871 0.96163493 0.9745822 0.9659982 0.9937853 0.9888032 0.9599016 0.995246
00000000: 38db 7b3f d819 843f 7020 813f d03b 803f
00000010: 5763 7c3f 54c6 793f 190e 833f 6677 813f
00000020: 3bbb 7f3f c02b 803f 1eda 813f 0da1 833f
00000030: 709c 833f 3bda 803f 1814 833f 5efa 7a3f
00000040: db9d 7e3f 452a 823f d7c7 813f 4e63 7e3f
00000050: bb6d 7c3f 9257 803f d9d2 893f 2583 7d3f
00000060: e08c 763f b52d 763f 387e 793f a84b 773f
00000070: b768 7e3f 3522 7d3f 1cbc 753f 71c8 7e3f

counter.5.bias f4 [32]
-0.019177763 0.051535703 -0.004466065 0.07482378 -0.0072849216 -0.008547366 0.038340736 -0.007047479
-0.036980145 -0.01333611 0.003320211 -0.01492319 0.023842901 -0.015852826 0.02295565 -0.0013357177
-0.022395622 -0.0063082455 0.07925257 -0.03604302 -0.00796017 0.10902445 0.00438466 -0.003377741
0.009866699 -0.048685227 0.019551765 0.006708301 -0.008420408 0.02832019 0.05432481 0.017029205
00000000: af1a 9dbc 1a17 533d 1258 92bb 363d 993d
00000010: 5ab6 eebb 400a 0cbc 2d0b 1d3d 8aee e6bb
00000020: 7e78 17bd b37f 5abc e697 593b 6580 74bc
00000030: 3052 c33c c9dd 81bc 7d0d bc3c 4013 afba
00000040: 0677 b7bc 66b5 cebb 2c4f a23d d9a1 13bd
00000050: 5f6b 02bc 3648 df3d 32ad 8f3b 175d 5dbb
00000060: efa7 213c 296a 47bd 062b a03c 4fd1 db3b
00000070: c0f5 09bc beff e73c b183 5e3d d580 8b3c

counter.5.running_mean f4 [32]
-0.28952062 -0.26173 0.3334787 -0.250643 0.15428366 -0.5257657 -0.116540186 -0.19521707
0.21412364 -0.061184987 -0.31353793 0.2718541 -0.28887245 -0.20720571 -0.059384044 -0.2830563
-0.1575195 0.04561378 -0.8026232 0.72899264 -0.17109351 -0.20913985 -0.20801465 -0.009711315
0.3413506 -0.44213846 0.1443916 0.27733603 0.09577546 -0.23338415 -0.20314981 -0.124547005
00000000: 0c3c 94be 7901 86be b8bd aa3e 4754 80be
00000010: 89fc 1d3e 9598 06bf 9fac eebd fce6 47be
00000020: 3a43 5b3e 1c9d 7abd 0b88 a0be 7630 8b3e
00000030: 17e7 93be bc2d 54be af3c 73bd c1ec 90be
00000040: cb4c 21be 84d5 3a3d b778 4dbf 439f 3a3f
00000050: 2333 2fbe c228 56be cb01 55be 351c 1fbc
00000060: 81c5 ae3e f95f e2be 64db 133e fdfe 8d3e
00000070: ed25 c43d 41fc 6ebe 8106 50be 8012 ffbd

counter.5.running_var f4 [32]
0.46471962 0.14559554 0.6888551 0.15859762 0.386627 0.60987866 0.16891196 0.19995397
0.2681666 0.33195812 0.25122508 0.23602381 0.3954732 0.22363256 0.24980967 0.30968747
0.6450817 0.37241915 0.6789521 0.8907285 0.36625603 0.17104286 0.17272522 0.21472543
0.20807832 0.3157906 0.5576977 0.550636 0.28268686 0.26038373 0.33878714 0.4718434
00000000: bbef ed3e ff16 153e cf58 303f 6a67 223e
00000010: f9f3 c53e 0221 1c3f 42f7 2c3e bcc0 4c3e
00000020: 224d 893e 6af6 a93e 93a0 803e 3ab0 713e
00000030: 777b ca3e efff 643e 1bce 7f3e 5b8f 9e3e
00000040: 1324 253f b9ad be3e cecf 2d3f c806 643f
00000050: e985 bb3e dc25 2f3e e1de 303e fce0 5b3e
00000060: 7c12 553e 4eaf a13e 47c5 0e3f 7bf6 0c3f
00000070: 55bc 903e 0451 853e 8275 ad3e 7595 f13e

counter.7.weight f4 [32, 32, 3]
-0.102085814 0.0651588 -0.0059490497 -0.08158229 -0.012212798 -0.05484394 -0.041639317 0.030133108
-0.052780613 -0.09746358 -0.02382013 0.06820457 0.0009107824 -0.07059817 0.0049162577 -0.093809366
0.07355917 -0.020899767 -0.06740108 0.096614674 0.07738086 0.044134773 0.05851937 -0.003476928
-0.068837576 0.031435534 0.05417123 -0.059035756 0.017921291 0.00891623 -0.029294373 -0.0186129
0.07209946 0.12839298 -0.043631356 0.051637553 -0.14123985 0.08941875 -0.05778336 -0.050866503
-0.036447734 0.011856443 -0.09909253 0.010916027 0.04740347 0.03440709 0.0025198844 -0.04314896
0.03196622 -0.022269726 0.062048227 0.067248665 0.07348934 -0.06347395 0.01379716 -0.09798271
0.11062338 0.046550654 0.03865417 -0.10410613 -0.055100188 0.02299511 -0.0502655 -0.014362656
-0.08662109 0.069685444 -0.094897315 -0.11000594 -0.038554348 -0.007367167 0.08418724 -0.033515416
-0.11455508 -0.074007556 0.051889874 -0.029784553 0.0070285015 0.0022785794 -0.0760796 -0.010514565
-0.05603029 -0.026088476 0.048190247 -0.023217665 -0.005346442 -0.02845753 0.023957979 0.062105518
-0.012651645 0.0761851 -0.11718567 -0.10082247 0.0049685487 0.03460012 -0.037778903 -0.087274395
0.020547189 -0.043816697 0.025463521 0.043747913 0.082865424 0.0033075754 -0.058784205 -0.06331902
-0.11445787 0.046232685 0.05884715 -0.048999403 0.018123902 0.00367838 0.08695687 -0.10655884
0.088732794 0.025514781 0.042860202 0.03324072 0.025285596 0.0825246 -0.07930313 -0.006508625
0.10364807 0.04923631 0.0036431646 0.078370094 -0.028288512 -0.010007845 0.041513935 0.05558517
-0.11086592 0.02641083 -0.04292523 0.016261093 0.04793978 -0.056276254 -0.082143635 -0.13383098
-0.082888044 -0.045014188 -0.08758204 -0.08511249 0.05554965 0.04250066 -0.019129442 0.08869473
0.054048732 -0.045089323 -0.067935325 -0.08587991 -0.09989739 -0.13024049 0.00197599 0.08764156
-0.032484084 0.09701457 0.083787456 0.06721486 -0.024752377 0.07420517 0.06720277 0.0847936
0.0461762 -0.007493607 0.09417173 0.01777556 -0.03446982 0.07613725 0.006155033 -0.08124213
-0.052786022 0.044913195 -0.06993266 0.08645852 0.051517207 0.09560141 0.058379173 0.05607788
0.041977465 0.0629081 -0.032362405 0.052847985 0.016771661 0.06648053 -0.0977532 -0.11251084
-0.0673851 0.01956281 0.079274826 -0.0046640686 0.064460464 -0.024676934 0.078014106 -0.03728154
-0.013572746 -0.08603305 0.02806905 -0.03928195 0.057168406 0.038489427 0.026791478 -0.09454084
-0.022708826 0.031781424 -0.02178949 -0.07045029 0.0525205 -0.08864245 -0.00352178 -0.044808947
-0.011983265 -0.10979663 0.08013874 -0.09048895 -0.08698153 0.08792034 -0.07451717 -0.042435914
0.09487294 -0.020983586 0.044552725 0.016331073 0.032150064 0.026265107 0.09140939 -0.02154783
-0.08461555 0.0001564784 0.073292546 0.062231906 0.011218334 0.09286841 -0.06420651 -0.069439285
0.016621105 -0.07809027 0.013745581 0.031603687 0.17729035 0.10043439 -0.018221298 -6.277014e-05
0.1182693 0.003713372 -0.048297245 0.11561253 0.032531068 0.0651828 0.084954634 -0.036748588
-0.035685882 -0.06335689 0.067810684 -0.1026784 -0.10697329 -0.022504961 0.050476573 -0.05521323
00000000: 5e12 d1bd fa71 853d 3ff0 c2bb 9e14 a7bd
00000010: 3018 48bc 0aa4 60bd fd8d 2abd b5d9 f63c
00000020: 7c30 58bd fc9a c7bd 6f22 c3bc d6ae 8b3d
00000030: 92c1 6e3a c695 90bd 8f18 a13b 201f c0bd
00000040: 31a6 963d fd35 abbc 9409 8abd eadd c53d
00000050: db79 9e3d aac6 343d 02b2 6f3d 2cdd 63bb
00000060: b7fa 8cbd 8cc2 003d a7e2 5d3d 7acf 71bd
00000070: accf 923c 6115 123c c1fa efbc 157a 98bc
00000080: e2a8 933d 7379 033e cbb6 32bd e681 533d
00000090: 2ea1 10be 2d21 b73d 3fae 6cbd 6559 50bd
000000a0: 384a 15bd 8741 423c 06f1 cabd 23d9 323c
000000b0: 242a 423d 73ee 0c3d a524 253b f7bc 30bd
000000c0: 03ef 023d 006f b6bc 4826 7e3d abb9 893d
000000d0: 9481 963d a1fe 81bd 7c0d 623c 29ab c8bd
000000e0: 838e e23d e6ab 3e3d d653 1e3d 9835 d5bd
000000f0: bcb0 61bd 3e60 bc3c 32e3 4dbd 5851 6bbc
00000100: 6666 b1bd 3eb7 8e3d 8659 c2bd cb4a e1bd
00000110: 2aeb 1dbd 4768 f1bb 5c6a ac3d 7647 09bd
00000120: db9b eabd 4691 97bd 7a8a 543d bcfe f3bc
00000130: 584f e63b 3854 153b 9fcf 9bbd 4845 2cbc
00000140: 0480 65bd 80b7 d5bc 2363 453d f932 bebc
00000150: 3531 afbb c41f e9bc 8643 c43c 5b62 7e3d
00000160: d848 4fbc ef06 9c3d 0aff efbd 037c cebd
00000170: 35cf a23b dbb8 0d3d 0dbe 1abd ebbc b2bd
00000180: 9452 a83c 2379 33bd e098 d03c 0331 333d
00000190: 59b5 a93d e8c3 583b b5c7 70bd 67ad 81bd
000001a0: e368 eabd 7c5e 3d3d b609 713d 99b3 48bd
000001b0: 9478 943c fa10 713b 7216 b23d 853b dabd
000001c0: 8ab9 b53d 6004 d13c 2e8e 2f3d 6c27 083d
000001d0: bd23 cf3c a802 a93d ae69 a2bd 4e46 d5bb
000001e0: 7045 d43d 03ac 493d 29c2 6e3b 8080 a03d
000001f0: 4fbd e7bc f2f7 23bc 840a 2a3d 46ad 633d
00000200: ac0d e3bd 865b d83c 5ed2 2fbd fc35 853c
00000210: 815c 443d ee81 66bd ec3a a8bd fd0a 09be
00000220: 35c1 a9bd cc60 38bd 365e b3bd 754f aebd
00000230: 0888 633d 2c15 2e3d 59b5 9cbc 95a5 b53d
00000240: 3462 5d3d 95af 38bd ad21 8bbd cee1 afbd
00000250: 0197 ccbd c35d 05be 9c7f 013b 6b7d b33d
00000260: 080e 05bd 93af c63d c298 ab3d f2a7 893d
00000270: 7fc5 cabc e1f8 973d 9ba1 893d 44a8 ad3d
00000280: 4123 3d3d ee8c f5bb 1cdd c03d 0d9e 913c
00000290: 3a30 0dbd d9ed 9b3d 29b0 c93b 4662 a6bd
000002a0: 2836 58bd e6f6 373d db38 8fbd 2a11 b13d
000002b0: b503 533d acca c33d 001f 6f3d ebb1 653d
000002c0: 90f0 2b3d f6d5 803d 718e 04bd 2177 583d
000002d0: b964 893c f226 883d d432 c8bd 156c e6bd
000002e0: 3301 8abd 3042 a03c d75a a23d 0bd5 98bb
000002f0: d903 843d 4827 cabc dcc5 9f3d 87b4 18bd
00000300: 3960 5ebc 1932 b0bd 10f1 e53c 1ce6 20bd
00000310: 6b29 6a3d 17a7 1d3d cd79 db3c a19e c1bd
00000320: dc07 babc 3d2d 023d df7f b2bc 3e48 90bd
00000330: bc1f 573d 2c8a b5bd aacd 66bb 9689 37bd
00000340: 7555 44bc 0edd e0bd c81f a43d 4552 b9bd
00000350: 5f23 b2bd 940f b43d 759c 98bd 48d1 2dbd
00000360: be4c c23d c5e5 abbc eb7c 363d bec8 853c
00000370: c9af 033d ec29 d73c d934 bb3d 1385 b0bc
00000380: eb4a adbd 5a14 2439 671a 963d e2e6 7e3d
00000390: 1acd 373c cb31 be3d b47e 83bd 2f36 8ebd
000003a0: fc28 883c cbed 9fbd 2535 613c de72 013d
000003b0: 9a8b 353e 8cb0 cd3d d544 95bc 76a3 83b8
000003c0: 2d37 f23d 0b5c 733b 55d3 45bd 43c6 ec3d
000003d0: 4c3f 053d 8f7e 853d b2fc ad3d b085 16bd
000003e0: 5c2b 12bd 42c1 81bd 54e0 8a3d 0e49 d2bd
000003f0: d014 dbbd 535c b8bc 86c0 4e3d 4527 62bd

counter.8.weight f4 [32]
1.0134689 1.0230237 0.99043775 1.0193219 0.98780644 0.9525671 0.99888086 1.0227056
0.9915997 1.0176167 0.9847128 1.0047379 1.0025582 1.059213 1.0036935 0.99392605
0.99760187 1.0272423 1.0261847 0.9602559 0.9961763 1.0177823 1.0097682 0.9818503
0.98533607 1.0292238 0.9835304 0.9732707 0.99657786 0.97372454 0.9952763 1.0233121
00000000: 59b9 813f 71f2 823f 548d 7d3f 2479 823f
00000010: e2e0 7c3f 70db 733f a8b6 7f3f 04e8 823f
00000020: 7ad9 7d3f 4441 823f 2316 7c3f 409b 803f
00000030: d453 803f 4b94 873f 0779 803f f071 7e3f
00000040: d662 7f3f ad7c 833f 055a 833f 55d3 753f
00000050: 6905 7f3f b146 823f 1640 813f 8b5a 7b3f
00000060: fc3e 7c3f 9bbd 833f a6c8 7b3f 4528 793f
00000070: ba1f 7f3f 0346 793f 6dca 7e3f e4fb 823f

counter.8.bias f4 [32]
0.0037580007 0.019159215 0.003121394 0.0067822533 -0.027675956 0.0031050069 -0.0021215521 0.023058353
-0.028441451 0.013161391 -0.033769164 0.021413818 0.03915587 0.031778827 0.060642045 -0.00046993536
0.033302188 0.040179104 0.017579392 -0.017081883 -0.013933476 0.046506755 -0.0153078465 -0.014380457
-0.00012900472 -0.042425584 -0.045716368 0.04660561 0.0064270315 -0.017299917 0.036103144 -0.021258451
00000000: ca48 763b c9f3 9c3c 4d90 4c3b aa3d de3b
00000010: b0b8 e2bc 5f7d 4b3b bd09 0bbb dfe4 bc3c
00000020: 0cfe e8bc e0a2 573c 8951 0abd 086c af3c
00000030: e861 203d 842a 023d cb63 783d a861 f6b9
00000040: e067 083d d892 243d a802 903c 4eef 8bbc
00000050: 3c49 64bc de7d 3e3d c3cd 7abc 029c 6bbc
00000060: 7145 07b9 73c6 2dbd 1641 3bbd 86e5 3e3d
00000070: d999 d23b 8eb8 8dbc e4e0 133d 3426 aebc

counter.8.running_mean f4 [32]
-0.29668146 0.18774234 -0.07358653 0.43104368 0.17183639 0.14384305 0.093947165 0.028762938
0.22115955 -0.6925204 0.08191812 0.31750968 -0.27905178 -0.05305348 -0.39506084 -0.29763398
-0.23622335 -0.46807012 0.30734402 0.093517594 0.1969079 -0.44665468 0.2328451 0.35269704
-0.32752642 0.65003574 -0.20735842 -0.24548997 0.04800395 -0.07886571 -0.06311606 -0.207552
00000000: a2e6 97be 873f 403e 89b4 96bd c2b1 dc3e
00000010: e1f5 2f3e 984b 133e 5f67 c03d 41a0 eb3c
00000020: a677 623e 0449 31bf b0c4 a73d a190 a23e
00000030: e0df 8ebe 9b4e 59bd 6a45 cabe 7b63 98be
00000040: 89e4 71be e3a6 efbe 325c 9d3e 2786 bf3d
00000050: 39a2 493e ecaf e4be f26e 6e3e b594 b43e
00000060: 8bb1 a7be be68 263f c455 54be b961 7bbe
00000070: ca9f 443d 5884 a1bd fe42 81bd 8388 54be

counter.8.running_var f4 [32]
0.36994287 0.26548487 0.36374265 0.24805756 0.15359576 0.13895935 0.15641344 0.15595451
0.17003533 0.5310577 0.122793 0.1723324 0.18200874 0.09678026 0.3600049 0.26533344
0.6243592 0.7772837 0.46001893 0.111408785 0.28468016 0.5277169 0.10849663 0.43091205
0.26542023 0.4295063 0.18450205 0.21781424 0.12223856 0.34856036 0.073171906 0.19481519
00000000: 2769 bd3e a2ed 873e 7a3c ba3e cd02 7e3e
00000010: 3548 1d3e 5c4b 0e3e d82a 203e 8ab2 1f3e
00000020: be1d 2e3e 66f3 073f e57a fb3d e877 303e
00000030: 8060 3a3e bb34 c63d 9052 b83e c9d9 873e
00000040: 01d6 1f3f 11fc 463f 9a87 eb3e 4a2a e43d
00000050: 99c1 913e 7418 073f 7b33 de3d 81a0 dc3e
00000060: 29e5 873e 40e8 db3e 1bee 3c3e b20a 5f3e
00000070: 3658 fa3d 8176 b23e 27db 953d a27d 473e

counter.10.weight f4 [32, 32, 3]
-0.074031524 -0.044589475 -0.07066534 0.052059904 0.023683922 0.0107068205 0.012765353 0.12447123
0.07104873 -0.026204107 0.02634963 0.06928675 0.05813721 0.076436825 -0.09551286 0.12449174
0.113763325 -0.058649935 -0.019752631 -0.0002476275 0.07038141 -0.0022118392 0.040984057 -0.10660969
0.049029965 0.12565668 0.07243541 -0.081486285 0.06827715 -0.032957293 -0.07483102 -0.04052593
0.08332532 0.10395272 0.04029637 -0.10193798 -0.06789651 0.02532192 -0.048567835 0.074113496
0.092692666 0.011791349 -0.058347158 -0.01569104 -0.070013754 0.005319097 -0.040181346 0.017163113
0.0953633 -0.029938059 -0.0816078 -0.017622903 0.0438212 0.020129435 0.088467404 0.029512016
0.03172434 0.055448186 0.011228293 -0.0075866235 0.04005532 -0.10588129 -0.005997078 -0.060735215
-0.10543003 -0.055124577 0.03483166 0.06325077 0.09444126 0.04776844 -0.021931242 -0.085184224
0.093357675 -0.07647963 -0.022416111 -0.025135709 0.029782373 0.05115742 0.07877015 -0.07756171
-0.053978715 -0.078521214 0.010256694 0.03134079 -0.049090907 0.08352575 -0.063113265 -0.027738262
0.019201722 -0.08887266 -0.015175517 0.023897825 -0.07545858 -0.1652873 -0.029015867 0.03171908
-0.076619074 0.05828135 -0.016840272 0.12539546 -0.00062909245 -0.046958767 0.08848901 -0.11139754
-0.013777319 0.058051076 0.06833786 0.008687983 0.06510631 -0.037926707 0.07303717 -0.049736924
-0.0863909 0.11836648 -0.055919513 0.0919513 0.04862567 -0.012312592 0.041717835 0.07996694
-0.11405313 0.061553493 0.07087036 -0.07814335 0.013718235 0.022748938 0.0029043457 -0.0686874
0.07520858 0.106420755 0.013741209 -0.10953814 0.12202438 -0.026097413 -0.029510263 -0.032697283
0.057357673 -0.0067555406 -0.066208355 0.01897588 0.08064702 -0.008761695 0.03549077 -0.03513912
0.015648669 -0.060582645 0.10925499 -0.13624582 -0.012101006 0.041289676 -0.04150921 -0.019185893
-0.024888942 -0.045492593 -0.086009696 0.018251777 -0.07603943 -0.06322411 0.027394004 -0.0064223437
0.08616261 -0.014932198 -0.03141515 -0.025799055 -0.02660375 0.07355822 0.032934304 -0.036379296
-0.031676676 0.09765879 -0.0076954872 -0.04982198 -0.026680477 0.07203135 0.010160019 0.027865862
0.074096695 0.01836514 0.00093809713 0.084567726 -0.05417475 -0.10487729 0.05535175 0.029325658
-0.014676715 -0.02339688 0.05249527 0.07810509 -0.06420424 0.059897043 0.03558684 0.026234575
0.11246533 0.051527247 -0.10702992 -0.07800555 0.08823629 -0.024128674 -0.019587843 -0.032405365
-0.105529524 -0.023265501 0.098789476 -0.07559726 -0.052464228 0.03744453 -0.02363102 0.06252955
-0.0018140737 0.046580292 -0.0562799 -0.07044696 -0.04170003 0.018985871 -0.05121306 -0.110779636
-0.015141365 0.05243941 0.012028628 -0.06608618 -0.06221169 0.07761015 -0.032459326 -0.01815474
-0.061598897 0.015544126 -0.012971081 -0.041474126 0.08367793 0.06293179 -0.043519925 -0.10703184
0.031229736 -0.05292029 -0.047161408 0.052246563 0.081746794 -0.07424387 0.060489446 -0.04455511
-0.04655185 0.06898687 0.15975471 0.11597569 0.03484503 0.063634716 -0.079486 -0.019816548
0.14171039 0.07279587 -0.077065386 -0.06912157 0.02896607 0.047135368 -0.118781984 0.038416065
00000000: d79d 97bd 74a3 36bd fdb8 90bd c43c 553d
00000010: c904 c23c a96b 2f3c c525 513c c6ea fe3d
00000020: ff81 913d ffa9 d6bc 2edb d73c 36e6 8d3d
00000030: 4821 6e3d e98a 9c3d 3f9c c3bd 86f5 fe3d
00000040: bffc e83d ea3a 70bd 45d0 a1bc 00d4 81b9
00000050: 2124 903d 81f4 10bb e6de 273d 2e56 dabd
00000060: a5d3 483d 25ac 003e 0459 943d 48e2 a6bd
00000070: e4d4 8b3d 3afe 06bd 0141 99bd 84fe 25bd
00000080: 77a6 aa3d 2ae5 d43d ce0d 253d dcc4 d0bd
00000090: 530d 8bbd ea6f cf3c 11ef 46bd d1c8 973d
000000a0: a7d5 bd3d 8130 413c 6efd 6ebd 7f8a 80bc
000000b0: 5f63 8fbd d24b ae3b 3295 24bd a899 8c3c
000000c0: d54d c33d a940 f5bc fe21 a7bd e85d 90bc
000000d0: dc7d 333d 7ce6 a43c 662e b53d 2fc3 f13c
000000e0: 62f1 013d a31d 633d e0f6 373c 3699 f8bb
000000f0: 0c11 243d 4ad8 d8bd 2383 c4bb 7dc5 78bd
00000100: b3eb d7bd 4fca 61bd a5ab 0e3d 9f89 813d
00000110: 6b6a c13d d7a8 433d 26a9 b3bc 1175 aebd
00000120: 4f32 bf3d 5aa1 9cbd fea1 b7bc 67e9 cdbc
00000130: 2afa f33c 718a 513d 3f52 a13d acd8 9ebd
00000140: c918 5dbd bbcf a0bd b10b 283c 335f 003d
00000150: 8c13 49bd 8c0f ab3d 8741 81bd 5a3b e3bc
00000160: ee4c 9d3c df02 b6bd bba2 78bc 5fc5 c33c
00000170: 078a 9abd 1341 29be afb2 edbc deeb 013d
00000180: 76ea 9cbd 6db8 6e3d 9cf4 89bc ab67 003e
00000190: aee9 24ba d657 40bd ba39 b53d 6524 e4bd
000001a0: 44ba 61bc f7c6 6d3d b8f4 8b3d 0b58 0e3c
000001b0: 7556 853d 0959 1bbd 8394 953d f2b8 4bbd
000001c0: b6ed b0bd 206a f23d dc0b 65bd f750 bc3d
000001d0: b62b 473d c1ba 49bc 52e0 2a3d b5c5 a33d
000001e0: b094 e9bd 841f 7c3d 7b24 913d 9f09 a0bd
000001f0: 73c2 603c fb5b ba3c d656 3e3b fbab 8cbd
00000200: f506 9a3d 20f3 d93d cf22 613c 8855 e0bd
00000210: ebe7 f93d 3eca d5bc 82bf f1bc 96ed 05bd
00000220: e1ef 6a3d 955d ddbb 3f98 87bd 4e73 9b3c
00000230: 442a a53d 368d 0fbc c55e 113d 0aee 0fbd
00000240: a331 803c 8225 78bd 15c1 df3d 0684 0bbe
00000250: 4c43 46bc 5d1f 293d 9005 2abd bc2b 9dbc
00000260: e5e3 cbbc 7156 3abd da25 b0bd c084 953c
00000270: 90ba 9bbd a47b 81bd 6469 e03c 8672 d2bb
00000280: 0676 b03d 2ea6 74bc 2cad 00bd 8a58 d3bc
00000290: 1cf0 d9bc b1a5 963d 1fe6 063d 7502 15bd
000002a0: 67bf 01bd 5501 c83d 6d2a fcbb 2212 4cbd
000002b0: 0491 dabc 2c85 933d 3576 263c f346 e43c
000002c0: 02c0 973d 7d72 963c a2ea 753a d831 ad3d
000002d0: 58e6 5dbd e8c9 d6bd 84b8 623d 5d3c f03c
000002e0: 9b76 70bc d0aa bfbc 4805 573d 90f5 9f3d
000002f0: 837d 83bd 9a56 753d 82c3 113d e4e9 d63c
00000300: 3954 e63d 3c0e 533d 8132 dbbd 60c1 9fbd
00000310: 3ab5 b43d 7fa9 c5bc af76 a0bc 7dbb 04bd
00000320: dd1f d8bd 4b97 bebc 2352 ca3d bcd2 9abd
00000330: bbe4 56bd 6f5f 193d d795 c1bc 7e0f 803d
00000340: 36c6 edba faca 3e3d c185 66bd 7f46 90bd
00000350: a7cd 2abd 4288 9b3c c9c4 51bd 6fe0 e2bd
00000360: 7d13 78bc b5ca 563d b913 453c 3158 87bd
00000370: afd1 7ebd 12f2 9e3d 12f4 04bd 40b9 94bc
00000380: 204f 7cbd caac 7e3c a884 54bc c6e0 29bd
00000390: 565f ab3d 62e2 803d f341 32bd 8233 dbbd
000003a0: 81d5 ff3c f2c2 58bd 522c 41bd 7e00 563d
000003b0: dd6a a73d 2c0d 98bd c8c3 773d 6b7f 36bd
000003c0: 27ad 3ebd fd48 8d3d bd96 233e aa84 ed3d
000003d0: aab9 0e3d eb52 823d 8ec9 a2bd 5056 a2bc
000003e0: 871c 113e 0016 953d 75d4 9dbd 9c8f 8dbd
000003f0: 404a ed3c 0411 413d f843 f3bd 2a5a 1d3d

counter.11.weight f4 [32]
0.99348813 1.0404109 0.97646075 1.0393494 1.000548 0.9480403 0.99102145 1.0117875
0.9949868 0.9850836 0.99374497 1.0305834 1.0000038 0.971231 1.006241 0.9480175
1.0462031 1.0025944 1.0070275 1.0228815 0.98480827 0.98415494 1.006618 1.0094675
0.9864208 0.98453057 0.95568013 1.0357414 1.0377951 1.014514 0.9769662 1.0143825
00000000: 3d55 7e3f 2f2c 853f 55f9 793f 6709 853f
00000010: f511 803f c5b2 723f 95b3 7d3f 4182 813f
00000020: 74b7 7e3f 702e 7c3f 1266 7e3f 28ea 833f
00000030: 2000 803f 98a2 783f 81cc 803f 46b1 723f
00000040: fce9 853f 0355 803f 47e6 803f c8ed 823f
00000050: 651c 7c3f 94f1 7b3f dcd8 803f 3b36 813f
00000060: 1386 7c3f 320a 7c3f 74a7 743f 2d93 843f
00000070: 78d6 843f 98db 813f 751a 7a3f 49d7 813f

counter.11.bias f4 [32]
0.00484296 0.011328678 0.019554602 0.01278792 0.03412208 0.0046169343 -0.014447752 -0.016529918
-0.0006002403 -0.012584925 -0.0077795107 0.055127736 0.08015675 0.031507935 -0.014917244 -0.033081055
0.0566048 0.010422642 0.04011323 0.016691076 -0.06483618 -0.019547876 0.019864788 0.01537118
0.024720905 -0.047545973 0.02259073 0.053134937 0.031351417 0.035675906 -0.008877036 -0.005397433
00000000: b1b1 9e3b eb9b 393c f930 a03c 6d84 513c
00000010: 98c3 0b3d a749 973b 44b6 6cbc c069 87bc
00000020: 7259 1dba 0031 4ebc 44eb febb 9fcd 613d
00000030: 3929 a43d 770e 013d 7567 74bc 0080 07bd
00000040: 6fda 673d bbc3 2a3c c54d 243d b9bb 883c
00000050: d5c8 84bd de22 a0bc 7bbb a23c 67d7 7b3c
00000060: 7f83 ca3c 91bf 42bd 3210 b93c 05a4 593d
00000070: 586a 003d e620 123d fd70 11bc f3dc b0bb

counter.11.running_mean f4 [32]
0.05637109 0.16098571 0.104152784 0.27778694 -0.5226895 0.10547955 0.25047663 0.33260372
0.49943554 0.32906052 0.29408866 -0.13776878 0.085820794 0.14665905 0.10438682 -0.00020234623
0.1997717 -0.20891176 -0.2956882 0.09156115 -0.49057192 -0.24578227 -0.13837913 -0.028247755
-0.25268012 0.29791513 0.07479275 -0.52067095 -0.2193858 -0.28098246 -0.513099 0.01708507
00000000: 5fe5 663d 70d9 243e 0e4e d53d 173a 8e3e
00000010: fbce 05bf aa05 d83d 793e 803e 094b aa3e
00000020: 04b6 ff3e 9f7a a83e ca92 963e 4213 0dbe
00000030: d0c2 af3d ca2d 163e c2c8 d53d e72c 54b9
00000040: f490 4c3e f7ec 55be 7264 97be 6a84 bb3d
00000050: 3e2c fbbe 59ae 7bbe 42b3 0dbe d667 e7bc
00000060: 4a5f 81be 5588 983e f12c 993d b14a 05bf
00000070: aca6 60be efdc 8fbe 755a 03bf fdf5 8b3c

counter.11.running_var f4 [32]
0.26190096 0.13995068 0.34486052 0.3873697 0.23370768 0.19614801 0.39186472 0.11731819
0.178483 0.4154415 0.3719013 0.338025 0.3281206 0.14336607 0.35047144 0.28015053
0.31192717 0.23242621 0.28619173 0.22535245 0.23600872 0.33176005 0.18308012 0.7939974
0.13725273 0.28477988 0.15927634 0.2014377 0.19388968 0.3253497 0.32910416 0.37500933
00000000: e217 863e 3b4f 0f3e 8f91 b03e 5255 c63e
00000010: 1151 6f3e 06db 483e 7ea2 c83e 8544 f03d
00000020: 3fc4 363e c0b4 d43e d969 be3e 9d11 ad3e
00000030: 6cff a73e 8ece 123e fe70 b33e e46f 8f3e
00000040: ebb4 9f3e 2301 6e3e b987 923e cbc2 663e
00000050: 45ac 713e 74dc a93e 5b79 3b3e 6a43 4b3f
00000060: fb8b 0c3e abce 913e 5619 233e af45 4e3e
00000070: 048b 463e 3c94 a63e 5780 a83e 3901 c03e
