pretrained_models/DeepFreq/frequency_counting_module.pth (torch_old, 810302 bytes, 232 tensors)

mod.0.weight f4 [32, 1, 25]
0	0x3e205fad	0.15661497
1	0x3e3aa5b3	0.18227272
2	0xbdc83719	-0.09776134
3	0xbe0e4b89	-0.13896002
4	0x3e1f3964	0.15549237
5	0x3cd22a61	0.025654973
6	0xbd091015	-0.033462603
7	0x3dde4d1f	0.108545534
8	0xbd52f1ae	-0.051500015
9	0xbca4ddbb	-0.02012526
10	0x3e309265	0.17243345
11	0x3ca4030b	0.020020982
12	0xbd65dbb8	-0.056117743
13	0x3dab8b49	0.08376176
14	0xbdfd3af7	-0.12364762
15	0x3dc036e5	0.0938547
16	0xbe5832b2	-0.21113089
17	0xbe602072	-0.21887377
18	0xbe4b34a5	-0.19844301
19	0x3da98a34	0.08278313
20	0xbb5659df	-0.0032707376
21	0x3e488b61	0.19584419
22	0xbded6650	-0.1159178
23	0xbc27d5a4	-0.010243807
24	0xbdc1a8f5	-0.09456054
25	0x3db0ba65	0.08629302
26	0xbdc2a506	-0.09504132
27	0xbde3e1b2	-0.11127032
28	0x3db7be6f	0.08971869
29	0x3e0a0a80	0.13480568
30	0x3d555a67	0.052088168
31	0xbe0fb56c	-0.1403405
32	0x3e3670e3	0.178165
33	0x3db08b49	0.086203165
34	0x3ce5f832	0.02807245
35	0xbb95ba61	-0.0045693372
36	0x3d21da06	0.039514564
37	0x3de8e761	0.11372257
38	0x3db153b5	0.08658544
39	0x3ce24e2a	0.027625162
40	0x3dd33e60	0.103146315
41	0xbcafae4e	-0.02144542
42	0xbd8f6a48	-0.070026934
43	0x3e080564	0.13283306
44	0xbe1668b8	-0.14688385
45	0x3e0d15b3	0.13777809
46	0x3d75e9e0	0.060037494
47	0x3e03a862	0.12857202
48	0xbe1f3da3	-0.15550856
49	0xbe0d5af9	-0.13804235
50	0x3e3731f8	0.17890155
51	0x3e50de23	0.20397238
52	0x3d1e39b2	0.03862924
53	0x3c59b5a2	0.013287934
54	0x3e2ac7e8	0.1667782
55	0x3d9ff40e	0.078102216
56	0x3c8dcbfb	0.01730918
57	0xbe3bc5f3	-0.1833723
58	0x3e288460	0.16456747
59	0xbd2c9582	-0.04213477
60	0xbdc39d4b	-0.09551486
61	0x3d10a4d0	0.035313427
62	0xbd3002bc	-0.042971358
63	0x3d8b0361	0.06787754
64	0xbe13da14	-0.14438659
65	0xbe49d056	-0.1970838
66	0xbdda140f	-0.10648357
67	0xbde21b01	-0.11040307
68	0x3e11681f	0.14199875
69	0xbe4c7e50	-0.1997006
70	0x3e3bd789	0.18343939
71	0xbdfe322c	-0.12411913
72	0xbdd0fedb	-0.1020486
73	0xbd591329	-0.05299679
74	0x3cc23a03	0.023709303
75	0x3dfc9b56	0.123343155
76	0x3ce5df06	0.028060447
77	0x3d3dca0a	0.046335258
78	0x3e4d2790	0.20034623
79	0x3e0144dd	0.12623926
80	0x3d397242	0.04527498
81	0xbe2d49c1	-0.16922666
82	0xbe35ab69	-0.17741169
83	0x3daefdc3	0.08544495
84	0xbe218664	-0.15773922
85	0x3da9ec64	0.08297041
86	0xbccbf703	-0.024898058
87	0x3e129538	0.14314735
88	0x3e38c8c4	0.18045336
89	0xbbecee3f	-0.0072305496
90	0xbe563d1a	-0.20921746
91	0x3d4a3f45	0.049376745
92	0x3e1bf01e	0.15228316
93	0xbd1afafc	-0.037837014
94	0xb98de61d	-0.00027065063
95	0xbe58d7aa	-0.2117602
96	0x3d606419	0.05478296
97	0xbd7e9349	-0.06215218
98	0x3e52e84d	0.20596428
99	0x3e70a730	0.23501277
100	0x3d1f4ca2	0.038891442
101	0x3d16f182	0.036851414
102	0xbe2d1652	-0.16903046
103	0x3d2da7e6	0.04239645
104	0x3db52383	0.08844664
105	0x3e3be458	0.18348825
106	0x3cc41a95	0.023938457
107	0x3dca0445	0.098640956
108	0x3e11a2df	0.14222287
109	0xbdbfad7e	-0.09359263
110	0xbcfce614	-0.030871429
111	0x3b693efe	0.0035590525
112	0xbdaf7f33	-0.08569183
113	0xbd4cc723	-0.0499946
114	0xbbc451c9	-0.005991195
115	0xbe4d8c08	-0.20072949
116	0xbe3a4898	-0.18191755
117	0x3d7ab900	0.061211586
118	0xbcb26b62	-0.02177972
119	0x3b2c1957	0.002626022
120	0xbdba47b6	-0.09095709
121	0xbded4a98	-0.11586493
122	0x3e12e363	0.14344554
123	0x3df0280b	0.117263876
124	0x3db6595e	0.08903764
125	0xbe12d00e	-0.14337179
126	0x3dde2721	0.10847307
127	0x3e176493	0.1478446
128	0x3deb792d	0.11497722
129	0xbe2daac4	-0.16959673
130	0x3e2046f2	0.15652063
131	0xbe1f0ffb	-0.1553344
132	0xbdd1337d	-0.10214899
133	0x3e2ac919	0.16678275
134	0x3e03c854	0.12869388
135	0x3b3a9202	0.0028468375
136	0xbe1441a4	-0.14478165
137	0x3dbc179b	0.0918419
138	0xbd7ddb13	-0.061976504
139	0xbd3e400f	-0.04644781
140	0x3de6641d	0.11249564
141	0xbd223d1f	-0.03960907
142	0x3da0ad65	0.078455724
143	0x3e0c44c2	0.13698104
144	0x3dd01828	0.101608574
145	0x3da75fcc	0.08172569
146	0xbe1cf3b7	-0.15327345
147	0xbdf17c58	-0.11791295
148	0x3b213ab7	0.0024601647
149	0xbe1cb7d4	-0.153045
150	0x3cc8a884	0.024494417
151	0xbd83bd48	-0.06432587
152	0x3e1f55bc	0.15560049
153	0xbd9610ec	-0.07327446
154	0x3c39bb92	0.011336224
155	0xbe08d02e	-0.13360664
156	0xbe57a0e7	-0.21057473
157	0x3ce9c277	0.02853511
158	0x3d48e1c3	0.04904343
159	0x3e1e1825	0.15438898
160	0xbdd0a6af	-0.10188042
161	0xbe48d9a1	-0.19614269
162	0xbd4e4b7b	-0.050364953
163	0x3e20f191	0.1571715
164	0xbe1687d3	-0.1470025
165	0x3da34cf5	0.07973663
166	0x3dc44d44	0.0958505
167	0xbe2ebd3d	-0.17064376
168	0x3c01e66a	0.00792847
169	0x3db16d23	0.08663394
170	0x3e196261	0.14978935
171	0x3db65029	0.08902008
172	0x3badfa12	0.0053093517
173	0xbc152e0d	-0.009105218
174	0x3e10442d	0.14088507
175	0xbdf96fd1	-0.121795304
176	0xbc8fc4e3	-0.017549938
177	0x3d921771	0.07133377
178	0xbe47770d	-0.19479008
179	0x3de48647	0.11158424
180	0xbd96ae84	-0.07357505
181	0x3e1d9e55	0.1539243
182	0xbd7fb688	-0.062429935
183	0xbe3a5acb	-0.18198697
184	0x3d0248e6	0.031807803
185	0x3da2efb2	0.079558745
186	0x3a09d83f	0.00052583584
187	0x3df770ca	0.1208206
188	0x3d622964	0.055215254
189	0x3cf3c5f9	0.029757487
190	0x3c1b18d9	0.009466373
191	0x3e1bcfae	0.15215942
192	0x3da07dee	0.07836519
193	0x3e107fae	0.14111206
194	0xbe0b3c50	-0.13597226
195	0x3d3e9082	0.046524532
196	0xbe1eb827	-0.15499936
197	0x3d57521d	0.052568544
198	0x3e34efe9	0.17669643
199	0xbe048ef0	-0.12945151
200	0x3d8c0500	0.06836891
201	0x3e2cae84	0.16863447
202	0xbe317c61	-0.17332603
203	0xbd930867	-0.07179337
204	0xbe3eb2a7	-0.18622838
205	0x3df5dc0f	0.120048635
206	0x3da9235d	0.08258698
207	0x3d8ce6f6	0.0687999
208	0xbd9f0bf0	-0.07765949
209	0x3e17ad49	0.14812197
210	0xbe5ebd60	-0.21751928
211	0x3dc8f958	0.098131835
212	0x3e05e39d	0.13075109
213	0x3dcd83d2	0.10034908
214	0xbd8ee6be	-0.06977604
215	0x3e0e609d	0.13904043
216	0xbe177485	-0.14790542
217	0x3e28c9f9	0.16483296
218	0x3d8b04fc	0.0678806
219	0x3db6b17c	0.08920571
220	0xbda0a9bc	-0.07844874
221	0xbe202414	-0.15638763
222	0x3d487569	0.048940096
223	0x3d9d47cd	0.076797105
224	0xbe3acfa8	-0.18243277
225	0xbd71241b	-0.058872323
226	0x3e24bb89	0.16087164
227	0x3d66f90e	0.05638986
228	0xbd6be1af	-0.057588276
229	0xbe26d625	-0.16292627
230	0x3e438f5d	0.19097658
231	0xbde983de	-0.11402105
232	0xbe28f88a	-0.1650106
233	0x3d381c70	0.044948995
234	0x3dc39715	0.09550301
235	0xbdaacc3d	-0.083397366
236	0xbc096b5f	-0.008387416
237	0x3cbbfddb	0.022948196
238	0xbe04d5db	-0.12972204
239	0x3ded9da5	0.11602334
240	0x3d2ba83c	0.041908488
241	0xbdb102ac	-0.08643088
242	0xbe117ddb	-0.14208166
243	0xbd92ab2e	-0.07161556
244	0xbdb8eecd	-0.09029923
245	0x3e3b0580	0.18263817
246	0x3e2cf210	0.16889215
247	0xbd41e1e5	-0.04733457
248	0xbdba2933	-0.090898894
249	0xbe167ad7	-0.14695297
250	0x3df03c13	0.11730208
251	0xb97e6822	-0.0002426212
252	0x3df84d2c	0.12124094
253	0x3e04ba7c	0.12961763
254	0x3e38eb75	0.1805857
255	0x3d9aa22c	0.07550463

mod.0.bias f4 [32]
0	0xbd19f54e	-0.037587456
1	0x3dbc4dc9	0.09194524
2	0xbd0df2be	-0.034655325
3	0x3d4c56e0	0.049887538
4	0xbd12290b	-0.035683673
5	0x3d8c6308	0.06854826
6	0x3e0eaf10	0.13933969
7	0xbe5e0fbb	-0.21685688
8	0xbe1e892a	-0.15482011
9	0xbe1fd79a	-0.15609589
10	0x3e346e8c	0.17620295
11	0xbc4dd7b8	-0.012563638
12	0x3e181eb0	0.14855456
13	0x3d58cfc8	0.05293253
14	0x3d2475ac	0.040151283
15	0xbe33ed4c	-0.1757099
16	0xbe3dedf0	-0.18547797
17	0xbde118a5	-0.10991029
18	0x3db92a33	0.09041252
19	0x3e15a831	0.14614941
20	0xbe0b44b4	-0.13600427
21	0xbe33e8be	-0.17569253
22	0xbe34e303	-0.17664723
23	0x3d53f512	0.05174739
24	0xbe11cd08	-0.1423837
25	0xbd068ff7	-0.03285214
26	0x3e5cd891	0.21566989
27	0xbe0f3609	-0.13985457
28	0xbe4186e5	-0.18899114
29	0xbe2f3053	-0.17108278
30	0xbdc17ee4	-0.094480306
31	0xbc6a4bd0	-0.014300302

mod.1.weight f4 [32, 32, 3]
0	0x3dfc4dd5	0.12319533
1	0x3d6ca53b	0.057774764
2	0xbdc241fe	-0.09485243
3	0xbd5b1998	-0.053491205
4	0x3cdf1d37	0.02723561
5	0x3a8d5823	0.0010783713
6	0x3ddabb81	0.10680295
7	0x3d2c3e69	0.042051706
8	0x3cd3c025	0.025848458
9	0xbcefae70	-0.029257983
10	0xba514314	-0.00079827127
11	0xba864457	-0.0010243756
12	0x3d33fd14	0.043942526
13	0x3dac399a	0.08409424
14	0xbdba5293	-0.09097781
15	0xbc6958a7	-0.014242328
16	0xbd99e80f	-0.07514965
17	0xbd67e6c5	-0.056616563
18	0x3d8a662c	0.06757769
19	0xbda87ab4	-0.08226529
20	0xbb33518c	-0.0027361838
21	0xbbc564d2	-0.0060239816
22	0xbd2deef9	-0.04246423
23	0x3c83774e	0.0160481
24	0xbd4120be	-0.047150366
25	0x3ba8ed49	0.0051552397
26	0xbd5da554	-0.054112747
27	0xbdaf7aa0	-0.08568311
28	0xbd73741c	-0.059436902
29	0xbcae8555	-0.021303812
30	0x3d2510a8	0.040299088
31	0x3d9140c8	0.07092434
32	0xbd15c954	-0.036568955
33	0xbc82023d	-0.015870208
34	0x3cfe69c7	0.031056298
35	0x3d38d432	0.04512424
36	0xbcc07131	-0.023491474
37	0x3b3cdbbc	0.0028817495
38	0x3d9fb10c	0.07797441
39	0x3d8ed367	0.069739155
40	0xbd617e30	-0.055051982
41	0x3c9695f4	0.01838205
42	0x3dd7f8c2	0.10545494
43	0x3dccdf9d	0.10003588
44	0x3d9042af	0.07043969
45	0xbcbad449	-0.022806304
46	0x3db97cfc	0.09057042
47	0x3db3ee5f	0.087857
48	0x3da58e22	0.0808375
49	0x3da6fb0a	0.08153351
50	0xbbde417a	-0.0067827078
51	0x3ce10e5b	0.027472666
52	0x3deee501	0.11664773
53	0x3cc4ad5e	0.02400845
54	0xbcffa254	-0.031205334
55	0xbe1364c8	-0.14393914
56	0x3d100b26	0.035166882
57	0x3d816dff	0.06319808
58	0xbdc72e7e	-0.097256646
59	0xbc17c57d	-0.0092633935
60	0xba92ee38	-0.0011209911
61	0xbd8768fa	-0.066118196
62	0x3de7d975	0.113207735
63	0x3dc3a71c	0.09553358
64	0xbdd548ac	-0.10414252
65	0x3c73218b	0.01483954
66	0xbc0c17f4	-0.008550633
67	0xbdd3bde4	-0.10338953
68	0xbdaf9617	-0.08573549
69	0xbd9ac504	-0.07557109
70	0xbb15cb03	-0.00228566
71	0xbd21ff5c	-0.03955017
72	0xbd08e934	-0.033425525
73	0x3d6c7349	0.057727132
74	0xbcece196	-0.028916162
75	0xbd6057fa	-0.0547714
76	0x3da049aa	0.0782655
77	0x3cf34120	0.02969414
78	0x3bcada0e	0.006190545
79	0xbd8ce5d1	-0.068797715
80	0xbd81c08d	-0.06335554
81	0x3bc4f5ea	0.0060107606
82	0xbd75f279	-0.060045693
83	0xbd3dfa29	-0.04638115
84	0xbdb1276c	-0.08650097
85	0x3b7c9f5b	0.0038547132
86	0xbdbc9b7a	-0.09209342
87	0xbbaa1ab8	-0.0051911734
88	0xbc960b85	-0.01831604
89	0x3d9bbbb7	0.07604163
90	0x3d2b2019	0.041778658
91	0xbd4f660c	-0.05063443
92	0x3cdc0119	0.026855992
93	0x3daf3b2c	0.08556208
94	0x3c77f5e6	0.01513431
95	0xbd62f0b9	-0.055405352
96	0x3d0c143e	0.034198992
97	0xbdd69d10	-0.10479176
98	0x3d386b37	0.045024123
99	0xbd7376bc	-0.059439406
100	0x3dd57b8b	0.104239546
101	0x3dd0ef99	0.102019496
102	0xbc012cb9	-0.007884198
103	0xbd723d02	-0.059140213
104	0x3d588432	0.052860446
105	0x3deb2955	0.11482493
106	0x3d801d31	0.06255568
107	0x3de683b2	0.11255588
108	0xbc89ba7d	-0.016812557
109	0x3c1e6d6f	0.009669646
110	0x3da89c46	0.08232932
111	0x3d959a82	0.07304861
112	0x3d024eea	0.03181354
113	0x3d86784d	0.06565914
114	0x3d47d810	0.048790038
115	0xbdf0d5f3	-0.117595576
116	0xbd1c821e	-0.038210027
117	0xbd633b0e	-0.05547624
118	0xbd825ad5	-0.06364981
119	0xbd0c90ed	-0.0343179
120	0x3cfcc07c	0.030853502
121	0x3d8f5c09	0.06999976
122	0xbd46c738	-0.048529834
123	0x3d223af3	0.039607
124	0x3d8e1b58	0.06938809
125	0x3d6b4f3f	0.05744862
126	0x3dd42f7b	0.10360619
127	0xbc8b1609	-0.01697828
128	0x3d16bdae	0.036801986
129	0xbdeae8a1	-0.11470152
130	0xbda196c8	-0.07890087
131	0xbcba5669	-0.022746282
132	0xbcd3bd4b	-0.025847098
133	0x3d0da0e0	0.03457725
134	0xbdcbd78d	-0.099532224
135	0xbded956d	-0.11600766
136	0x3d2f394b	0.04277925
137	0x3d88f11f	0.06686615
138	0x3dfb494a	0.12269838
139	0x3d6f11f1	0.05836672
140	0xbd719c90	-0.0589872
141	0xbda8b49a	-0.08237572
142	0x3d66a704	0.056311622
143	0xbd34fa88	-0.044184238
144	0xbd48b67d	-0.04900216
145	0xbd7c1187	-0.061540153
146	0xbd2053c6	-0.039142393
147	0x3d2d1977	0.042260613
148	0x3d3011d2	0.042985745
149	0xbc08299e	-0.008310704
150	0xbc39cc21	-0.011340172
151	0x3dd772f8	0.105199754
152	0xbd91a13e	-0.07110833
153	0xbd907a65	-0.07054595
154	0xbd6200df	-0.055176612
155	0xbd6904a7	-0.056889202
156	0xbdb3e0d8	-0.0878312
157	0x3d3be464	0.045872107
158	0xbd814e13	-0.063137196
159	0xbd646761	-0.055762652
160	0xbcd28523	-0.02569825
161	0x3c9ad979	0.018902527
162	0xbdad0984	-0.084490806
163	0xbd11c1d8	-0.035585254
164	0x3d9cb2af	0.07651269
165	0xbdac2269	-0.08405001
166	0x3d4dce9a	0.05024586
167	0x3ba55373	0.0050453483
168	0xbd38c582	-0.045110233
169	0xbc6c8e41	-0.014438213
170	0xbd7dacb1	-0.06193227
171	0x3ccd3f37	0.025054557
172	0x3c347459	0.011014068
173	0x3d63e2b1	0.05563611
174	0x3c503c06	0.012709623
175	0xbd83140a	-0.064003065
176	0x3ce1fbee	0.02758595
177	0xbd6a66e0	-0.057227015
178	0xbd1f87d3	-0.03894789
179	0x3d2de5b1	0.04245538
180	0xbd09d641	-0.033651594
181	0x3dab088b	0.08351239
182	0x3d15825a	0.036501266
183	0xbd1a7955	-0.037713367
184	0x3baaa8fa	0.005208132
185	0x3b58d84a	0.0033087903
186	0xbba636f5	-0.0050724694
187	0xbd98674c	-0.07441577
188	0xbd31d874	-0.043419316
189	0x3d9524f9	0.072824426
190	0x3d6c5bfa	0.057704903
191	0xbd9811ba	-0.07425256
192	0xbd410ed9	-0.0471333
193	0x3e23bc52	0.15989807
194	0x3c1ce6ac	0.009576481
195	0xbd155c68	-0.03646508
196	0x3db2f667	0.08738404
197	0xbd8837f0	-0.06651294
198	0x3d47590a	0.0486689
199	0x3d02e42d	0.031955887
200	0x3d4a5ea6	0.04940667
201	0xbc4cbb21	-0.012495787
202	0x3db1f3f4	0.086891085
203	0xbd60d36d	-0.05488913
204	0x3cfa4954	0.030552544
205	0x3ced50a3	0.028969115
206	0x3e156c3d	0.14592071
207	0x3db4d215	0.088291325
208	0x3dcde860	0.10054088
209	0xbc8658b1	-0.016399713
210	0x3cef64f1	0.029222937
211	0xbe0beb81	-0.13664056
212	0xbc7fe64d	-0.015618873
213	0x3d2d7874	0.0423512
214	0x3cf85f16	0.030318778
215	0xbc465294	-0.012104649
216	0xbd942836	-0.07234232
217	0x3cc5be05	0.02413846
218	0xbda16148	-0.07879883
219	0xbd557dfc	-0.0521221
220	0x3d8ee086	0.06976418
221	0x3c90748b	0.017633697
222	0x3d3bccd0	0.04584962
223	0x3de0feb2	0.10986079
224	0xbdc3cb75	-0.09560291
225	0x3d503407	0.050830867
226	0xbda20fec	-0.07913193
227	0x3cf4aae6	0.029866647
228	0xbc3c9e15	-0.011512299
229	0xbe07b725	-0.13253458
230	0xbcfc5cd1	-0.030805977
231	0x3b494cfa	0.0030716048
232	0xbd89b057	-0.06723087
233	0x3dd525a6	0.104075715
234	0x3cb7072f	0.022342293
235	0x3c391df9	0.01129865
236	0x3db857f1	0.090011485
237	0xbd4aecb4	-0.049542144
238	0x3c96c111	0.018402608
239	0x3c1b7593	0.009488481
240	0x3da4aefb	0.080411874
241	0x3cd19ef0	0.025588483
242	0x3dbb2251	0.09137405
243	0xbde13feb	-0.109985195
244	0xbdcdc52b	-0.100473724
245	0x3c8be59f	0.017077265
246	0xbc2ca4fa	-0.01053738
247	0xbd22e5db	-0.03976999
248	0x3d2fb0bc	0.042893156
249	0x3dbae34a	0.09125383
250	0x3d7b1334	0.06129761
251	0xbdb00ac1	-0.08595801
252	0xbdd58938	-0.10426563
253	0x3d268092	0.040649958
254	0xbd25998a	-0.04042963
255	0x3da06774	0.07832232

mod.2.weight f4 [32]
0	0x3f7ad579	0.97981983
1	0x3f82132c	1.0162101
2	0x3f79f772	0.97643197
3	0x3f7862cc	0.9702575
4	0x3f7d86ad	0.99033624
5	0x3f7fbfaa	0.9990183
6	0x3f808978	1.0041952
7	0x3f808afa	1.0042412
8	0x3f81579d	1.0104862
9	0x3f798c61	0.97479826
10	0x3f83093f	1.0237197
11	0x3f8103d6	1.0079296
12	0x3f7d435c	0.9893091
13	0x3f7fdb37	0.9994387
14	0x3f816392	1.0108511
15	0x3f8700d5	1.0547129
16	0x3f7c857a	0.9864117
17	0x3f84707c	1.0346828
18	0x3f7c5e21	0.9858113
19	0x3f7f9da1	0.998499
20	0x3f7daf0c	0.99095225
21	0x3f7a36be	0.9773978
22	0x3f819e6a	1.0126469
23	0x3f7be095	0.9838956
24	0x3f791cf4	0.97309804
25	0x3f7e3f71	0.99315554
26	0x3f848e3b	1.0355905
27	0x3f7bab4c	0.98308253
28	0x3f77f7ee	0.96862686
29	0x3f78b8d1	0.9715701
30	0x3f803f06	1.0019233
31	0x3f7a3b32	0.97746575

mod.2.bias f4 [32]
0	0xbd7c93ce	-0.061664395
1	0x3d145f32	0.036223598
2	0xbd32dfdf	-0.04367053
3	0xbc6ab6b3	-0.014325785
4	0xbb0cea95	-0.0021502126
5	0x3c1ad902	0.009451153
6	0x3c7febfe	0.01562023
7	0x3d4e9d15	0.050442774
8	0xbbef9cfd	-0.0073124156
9	0xba63a007	-0.0008683209
10	0x3cfbd94e	0.030743267
11	0xbb302bcf	-0.002688158
12	0xbdb36a42	-0.087605014
13	0xbcf616a2	-0.030040089
14	0xbce3fbe7	-0.027830077
15	0xbb1d3bc3	-0.002399192
16	0xbcda2786	-0.026630174
17	0xbc904574	-0.017611243
18	0xbb0bee46	-0.0021351739
19	0xbc5ae821	-0.013361008
20	0xbd270f20	-0.04078591
21	0xbd06e59d	-0.03293382
22	0x3ced04d6	0.02893297
23	0xbc819f6a	-0.015823085
24	0x3ca44d49	0.020056384
25	0x3c03eea6	0.008052504
26	0x3ca9291e	0.020649489
27	0xbc41cdcc	-0.011828851
28	0xbcb0d548	-0.021586075
29	0xbda49cbe	-0.08037709
30	0xbcef7e78	-0.02923511
31	0xbc05cb28	-0.008166112

mod.2.running_mean f4 [32]
0	0xbcb6283f	-0.022235988
1	0x3deced76	0.115687296
2	0xbd37edd5	-0.04490455
3	0xbcfb273e	-0.03065836
4	0xbe23ddca	-0.16002575
5	0x3d2bb9f3	0.041925382
6	0x3c984d3c	0.018591516
7	0x3d548647	0.05188587
8	0x3e3b792a	0.18307939
9	0x3d8122a5	0.06305436
10	0x3dea4b3f	0.11440133
11	0xbe05f5ec	-0.13082093
12	0x3cb82cef	0.022482364
13	0x3d9282d3	0.07153859
14	0x3e8e013c	0.27735317
15	0x3d568f2b	0.05238263
16	0x3dc56d7e	0.096400246
17	0x3dd4d762	0.103926435
18	0x3d488154	0.048951462
19	0xbe682313	-0.2266963
20	0xbe0366ef	-0.12832235
21	0xbd4c0ba6	-0.049815796
22	0xbe415f88	-0.18884099
23	0x3db6a0a4	0.089173585
24	0xbdb14449	-0.086556025
25	0xbd9561ab	-0.07294019
26	0x3dd46e10	0.10372555
27	0x3de957e1	0.11393715
28	0xbc6975b1	-0.014249251
29	0xbd9ec959	-0.07753248
30	0x3d8716be	0.065961346
31	0x3cfc22db	0.03077834

mod.2.running_var f4 [32]
0	0x3c87f0bc	0.016594283
1	0x3b990033	0.004669213
2	0x3cac3ae9	0.021024184
3	0x3ca968e6	0.020679902
4	0x3c80b78e	0.015712526
5	0x3c25fb7c	0.010130759
6	0x3b748098	0.0037308093
7	0x3baea1b6	0.005329336
8	0x3bbd974b	0.005785858
9	0x3c84251c	0.016130976
10	0x3b0c226e	0.0021382826
11	0x3c803384	0.015649565
12	0x3c7d63dc	0.015465703
13	0x3cada233	0.021195507
14	0x3c7a4170	0.015274391
15	0x3b3ed27c	0.0029117158
16	0x3c38e846	0.011285847
17	0x3bbba412	0.005726346
18	0x3ca26d58	0.01982753
19	0x3ca881d8	0.020569727
20	0x3bb7c0ec	0.005607715
21	0x3c97570e	0.018474128
22	0x3b714e0a	0.0036820197
23	0x3c92d4f4	0.01792381
24	0x3c12e5d9	0.008965933
25	0x3c53476b	0.012895445
26	0x3bfd6b6e	0.007733754
27	0x3c698df9	0.01425504
28	0x3c10aa24	0.008829627
29	0x3c270e09	0.010196217
30	0x3bccf135	0.00625434
31	0x3bafa378	0.005360063

mod.4.weight f4 [32, 32, 3]
0	0xbd3a4e52	-0.04548485
1	0x3d42a824	0.047523633
2	0x3d7637e4	0.060111895
3	0xbdacb298	-0.084325016
4	0x3d927875	0.071518816
5	0xbdcfe86b	-0.10151752
6	0xbd99e3ad	-0.07514129
7	0x3bf276f2	0.0073994333
8	0xbd4a73f7	-0.049427
9	0xbc3de9f3	-0.011591422
10	0x3d41ed59	0.047345493
11	0xbcb41d44	-0.021986611
12	0x3d7059a3	0.058679234
13	0xbd594138	-0.053040713
14	0x3d6f0548	0.058354646
15	0x3d871f55	0.06597773
16	0xbd9e5c2e	-0.07732426
17	0x3dd102a6	0.10205583
18	0xbd66ff40	-0.05639577
19	0x3ddde986	0.10835557
20	0xbd660e3d	-0.056165922
21	0xbd9175fe	-0.07102583
22	0x3d25f32b	0.040515106
23	0x3cfc59d6	0.030804556
24	0xbd4089ad	-0.047006298
25	0x3d99ab27	0.07503348
26	0xbd8f5e59	-0.07000417
27	0x3cb041db	0.021515777
28	0x39e2e661	0.00043277725
29	0x3d761cef	0.060086187
30	0xbc444d4b	-0.011981319
31	0xbda02a4e	-0.07820569
32	0xbd81b68c	-0.06333646
33	0x3cc6f367	0.024285985
34	0xbd39489a	-0.045235254
35	0xbdacf143	-0.084444545
36	0x3c2769d0	0.010218099
37	0xbd4a2b6b	-0.049357813
38	0xbc18781d	-0.009305981
39	0x3d175bda	0.03695283
40	0x3cac76f2	0.021052811
41	0xbd005a48	-0.0313361
42	0xbc08c092	-0.008346694
43	0xbc577489	-0.013150343
44	0x3d1c4b80	0.03815794
45	0xbd3b5a46	-0.04574039
46	0x3d331e52	0.043730088
47	0xbd561879	-0.052269433
48	0x3d9de3b3	0.07709446
49	0x3dadf810	0.0849458
50	0xbdc3873b	-0.095472775
51	0x3d4139f5	0.047174413
52	0x3d5cf2e2	0.05394257
53	0xbdc88632	-0.09791221
54	0x3dbcb275	0.092137255
55	0x3d5ed2fc	0.05440043
56	0x3ce0d73c	0.027446382
57	0x3d0fde52	0.03512413
58	0xbb389f29	-0.0028171039
59	0x3d385839	0.04500601
60	0x3db1ccb0	0.08681619
61	0x3df9322c	0.12167773
62	0x3da0c75b	0.07850524
63	0xbd4f000d	-0.050537158
64	0xbd4aaf35	-0.049483497
65	0x3ca78f7c	0.02045416
66	0xba0e045f	-0.00054175215
67	0x3d038588	0.032109767
68	0xbdcaee27	-0.09908705
69	0x3d76ea45	0.06028201
70	0xbda43ec3	-0.08019783
71	0x3c246ff4	0.010036457
72	0x3d815a0e	0.06316005
73	0xbcd6af69	-0.026206689
74	0x3c623170	0.013805732
75	0xbd94404e	-0.07238828
76	0x3b9b7c65	0.0047450536
77	0x3c50eb9b	0.012751485
78	0x3ce59213	0.028023755
79	0x3dae1236	0.08499567
80	0x3d471042	0.04859949
81	0x3dcaf99a	0.09910889
82	0x3cdf0fb4	0.027229168
83	0x3dad8dae	0.08474289
84	0x3c41c4ff	0.011826753
85	0x3ddac1ce	0.106814966
86	0x3db3a08b	0.087708555
87	0x3d2a5be0	0.041591525
88	0x38fa54a0	0.000119366916
89	0x3daa0a65	0.08302764
90	0xbd81d77c	-0.063399285
91	0xbdd71e1e	-0.10503791
92	0xbd7d3a4f	-0.061823186
93	0xbce709f1	-0.028202983
94	0xbce42583	-0.027849918
95	0xbd09e6e5	-0.033667464
96	0x3d9670b5	0.07345716
97	0x3d8549cd	0.06508217
98	0x3c996141	0.018723132
99	0x3dc33e65	0.09533385
100	0x3d390753	0.045173
101	0x3d05b7c1	0.032645945
102	0x3d40eca1	0.047100667
103	0x3d90eeb8	0.07076782
104	0x3d994640	0.07484102
105	0xbcfcbd23	-0.030851906
106	0xbd62da88	-0.05538419
107	0xbd16a744	-0.03678061
108	0xbde8fae4	-0.113759786
109	0x3d8e7cfa	0.06957431
110	0xbdae780f	-0.08518993
111	0xbd95ce8d	-0.07314787
112	0xbd558f30	-0.052138507
113	0xbd8fc70c	-0.07020387
114	0x3d967372	0.07346238
115	0x3d8ba33c	0.06818244
116	0x3dc98eca	0.09841688
117	0x3b524a82	0.0032087867
118	0xbe13fcdf	-0.14451931
119	0x3d2031a3	0.039109837
120	0xbb45d479	-0.0030186458
121	0xbcfea8f1	-0.031086417
122	0xbd876154	-0.06610361
123	0x3d14e47f	0.036350723
124	0xbdb74820	-0.089493036
125	0xbc06cfc4	-0.008228246
126	0x3e31a1b5	0.17346843
127	0x3d5c17fa	0.053733803
128	0xbdc7e6ef	-0.09760844
129	0xbdeea59f	-0.116526835
130	0x3be99cc5	0.007129284
131	0xbda1ef8b	-0.07907017
132	0x3da33a7d	0.0797014
133	0x3da8ed96	0.08248441
134	0x3d41728a	0.047228374
135	0x3d32e90d	0.043679286
136	0xbd4d01a7	-0.050050404
137	0xbd9578a9	-0.07298405
138	0xbcaf7470	-0.021417826
139	0xbd6e64e7	-0.058201697
140	0x3d3c2fc9	0.04594401
141	0xbcc9d065	-0.024635503
142	0x3d1551db	0.036455017
143	0xbd67a84a	-0.056556977
144	0x3d910afc	0.07082173
145	0x3c5127a5	0.0127658
146	0x3d9bc5d3	0.07606091
147	0x3c2f48b3	0.010698485
148	0x3db42c6b	0.087975346
149	0x3d480d6c	0.048840925
150	0x3c992522	0.018694464
151	0xbd95da0f	-0.07316982
152	0xbd1c38b9	-0.038140032
153	0xbda800f3	-0.08203306
154	0xbdae6731	-0.08515776
155	0x3d96c428	0.073616326
156	0x3c3abf19	0.0113981
157	0x39eade59	0.0004479762
158	0xbcafa7f0	-0.021442384
159	0xbcdcf499	-0.026972102
160	0xbd890e22	-0.06692149
161	0xbd91e19f	-0.07123112
162	0xbdc66b45	-0.09688429
163	0xbdba0fd0	-0.09085047
164	0xbc75617c	-0.014976855
165	0x3e06f70e	0.13180181
166	0xbc379ba9	-0.011206546
167	0x3b9daf25	0.0048121386
168	0xbc73c320	-0.014878064
169	0xbdbf2158	-0.09332532
170	0xbd1b37cb	-0.037895005
171	0x3da88208	0.082279265
172	0xbd4e2371	-0.05032677
173	0xbd8e03ed	-0.069343425
174	0xbd074562	-0.033025153
175	0xbc613719	-0.013746046
176	0x3cfa6854	0.030567326
177	0x3cad8397	0.021180911
178	0x3dd6d5f2	0.104900256
179	0xbb499a59	-0.0030762164
180	0xbdecb535	-0.11558
181	0xbcc67fdb	-0.024230888
182	0xbd6f8a73	-0.058481645
183	0xbda9c687	-0.08289819
184	0x3de05a9c	0.10954782
185	0x3d99d68a	0.07511623
186	0xbdb7c2a6	-0.08972673
187	0xbddf18d6	-0.10893409
188	0x3cc49887	0.023998512
189	0xbc682034	-0.014167834
190	0x3bc59ff8	0.0060310327
191	0x3c66c07e	0.01408398
192	0xbd99585e	-0.07487558
193	0xbbef8e91	-0.0073106964
194	0x3cfcfd21	0.03088242
195	0xbdb08b68	-0.0862034
196	0x3d2cd850	0.04219848
197	0xbd8d378d	-0.06895361
198	0xbdc0ec81	-0.094201095
199	0x3c92e4ef	0.01793143
200	0x3cfc5a98	0.030804917
201	0x3cd2b67e	0.025721785
202	0x3d4915dc	0.049093112
203	0x3d48f0e8	0.04905787
204	0x3dcc290f	0.09968769
205	0xbd5043b8	-0.05084583
206	0x3d121870	0.035667837
207	0x3cef98b7	0.029247625
208	0xbd27d67d	-0.040976036
209	0xbdb6cd27	-0.089258485
210	0x3dbf92b2	0.09354152
211	0x3d9e6078	0.07733244
212	0xbdb7c3e4	-0.0897291
213	0xbc6a5b87	-0.014304048
214	0x3d2a008e	0.041504435
215	0x3d630d45	0.055432577
216	0xbc82de99	-0.015975283
217	0x3c2debf1	0.010615335
218	0xbdabe013	-0.08392348
219	0x3c966239	0.018357383
220	0xbdcbf985	-0.099597014
221	0x3c3f4d7f	0.011676191
222	0x3c8b7a7c	0.017026179
223	0x3d55e88f	0.05222374
224	0xbd460a3f	-0.048349615
225	0x3dc0811c	0.09399626
226	0x3d17782e	0.036979847
227	0xbceb79b8	-0.028744563
228	0xbb81f89a	-0.003966403
229	0x3d3c5cfa	0.045987107
230	0x3de35f20	0.11102128
231	0x3bcbe1af	0.006221972
232	0x3d8903b4	0.066901594
233	0x3db1d34c	0.0868288
234	0xbdfb57e4	-0.12272623
235	0xbdf0614a	-0.117373064
236	0xbd641a74	-0.05568929
237	0x3d517c71	0.051144067
238	0x3a1dcae4	0.0006019308
239	0x3c67ba60	0.014143556
240	0xbdc3c48a	-0.09558971
241	0xbdae9273	-0.08524027
242	0xbda581aa	-0.08081372
243	0x3ce06d47	0.027395857
244	0xbd129dc2	-0.03579498
245	0x3bd2f97d	0.0064384327
246	0x3d1c5f21	0.03817666
247	0xbc6eeeea	-0.014583329
248	0x3d77c162	0.06048716
249	0xbd555c6a	-0.052090086
250	0xbddc25d3	-0.10749402
251	0x3d8cfe27	0.06884413
252	0xbc87f3b3	-0.016595697
253	0xbd1b2784	-0.037879482
254	0xbca54d43	-0.020178443
255	0x3ceeb567	0.029139234

mod.5.weight f4 [32]
0	0x3f80ba7c	1.005691
1	0x3f7a95ed	0.9788502
2	0x3f7eef91	0.995843
3	0x3f7823bc	0.96929526
4	0x3f81db8d	1.0145127
5	0x3f73c8ee	0.9522847
6	0x3f82bc7c	1.0213771
7	0x3f8183a5	1.01183
8	0x3f73ea55	0.9527944
9	0x3f792afc	0.97331214
10	0x3f7b6c02	0.9821168
11	0x3f81630b	1.010835
12	0x3f847d66	1.0350769
13	0x3f85081b	1.0393099
14	0x3f80d8f4	1.0066209
15	0x3f7e10a7	0.9924416
16	0x3f7c71dd	0.9861124
17	0x3f7977f7	0.97448677
18	0x3f8589fd	1.0432736
19	0x3f7ee8b6	0.9957384
20	0x3f81a8d7	1.0129651
21	0x3f7e7d98	0.9941039
22	0x3f893261	1.07185
23	0x3f7aa1b2	0.9790298
24	0x3f76957b	0.9632184
25	0x3f80cb7c	1.0062099
26	0x3f800fe7	1.0004853
27	0x3f7ed15b	0.995382
28	0x3f8250ec	1.0180945
29	0x3f802074	1.0009904
30	0x3f74122c	0.9534023
31	0x3f76a86a	0.9635073

mod.5.bias f4 [32]
0	0xbc127e75	-0.0089412825
1	0xbc0afbda	-0.008482898
2	0x3c1257b2	0.008932041
3	0xbd550dba	-0.052015044
4	0xbc923dc4	-0.017851718
5	0xbd5b3c73	-0.053524446
6	0x3d050a5c	0.032480583
7	0xbd1c55ff	-0.03816795
8	0x3b27f38c	0.0025627343
9	0x3c0a4045	0.008438175
10	0x3c7dd9b8	0.015493803
11	0x3d41bf68	0.04730168
12	0x3c299b6a	0.010351995
13	0xbc327824	-0.010892902
14	0x3b8261a4	0.003978925
15	0xbc1419be	-0.009039341
16	0xbcc11e2c	-0.023573957
17	0xbca15f72	-0.019698832
18	0x3bcfcf13	0.006341824
19	0x3c96101d	0.01831823
20	0x3b9b23a3	0.004734473
21	0x3cf01cf3	0.029310679
22	0xbb505c22	-0.0031793197
23	0xbcd7f84f	-0.02636352
24	0xbd3ad1a4	-0.045610085
25	0xbc1f0a58	-0.009707056
26	0xbc0120b0	-0.007881328
27	0x3cb91b7b	0.022596112
28	0xbd43d997	-0.04781493
29	0xbb88f47c	-0.0041795354
30	0xbd51fdf7	-0.05126759
31	0xbbb440cc	-0.0055008885

mod.5.running_mean f4 [32]
0	0x3db1881c	0.08668539
1	0xbe16b90a	-0.14719024
2	0xbe1d9acc	-0.15391082
3	0x3e494286	0.19654283
4	0x3e0025da	0.12514439
5	0x3d1e6025	0.03866591
6	0xbdcc3a94	-0.099721104
7	0x3dc82261	0.09772182
8	0xbbf61bbc	-0.0075106304
9	0xbcbd1837	-0.023082836
10	0xbe31c0d2	-0.17358711
11	0xbe43b28a	-0.19111076
12	0x3ea0e8d2	0.31427628
13	0xbe6cb0f1	-0.23114373
14	0x3c8da985	0.017292747
15	0x3d9bd903	0.07609751
16	0x3e1677ce	0.1469414
17	0xbdf0b761	-0.11753727
18	0x3e44b6ce	0.1921036
19	0xbe490ee9	-0.19634594
20	0xbeb6a82d	-0.35675183
21	0xbd84b17c	-0.06479165
22	0x3e800c36	0.25009316
23	0x3d038768	0.032111555
24	0xbee9695d	-0.45588198
25	0xbe96e89f	-0.2947435
26	0x3c862210	0.016373664
27	0xbde998db	-0.11406108
28	0x3e94f383	0.29092035
29	0x3d967264	0.07346037
30	0xbe0ab1fd	-0.1354446
31	0xbe229245	-0.1587611

mod.5.running_var f4 [32]
0	0x3e9ed5d3	0.3102251
1	0x3e6475d4	0.22310573
2	0x3ee2190d	0.44159737
3	0x3e846a82	0.2586251
4	0x3ee58b40	0.44832802
5	0x3e877593	0.2645689
6	0x3eaa9762	0.3331862
7	0x3e42e8ee	0.19034168
8	0x3edbe932	0.4295135
9	0x3e2a74a3	0.16646056
10	0x3f17173e	0.5901984
11	0x3ef644f8	0.48099494
12	0x3f4b579d	0.7943056
13	0x3e153d41	0.14574148
14	0x3dbb5d95	0.09148709
15	0x3eaa9399	0.33315733
16	0x3eb2f701	0.34954074
17	0x3e989973	0.29804572
18	0x3edc3e6d	0.43016377
19	0x3edc467f	0.43022534
20	0x3ecd0c82	0.40048605
21	0x3eca4887	0.3950846
22	0x3f096dc3	0.5368311
23	0x3e6ae5b6	0.2293919
24	0x3f240597	0.6407103
25	0x3ee231f1	0.44178727
26	0x3e88ba1d	0.26704493
27	0x3e4bd369	0.19904865
28	0x3ee7b870	0.45257902
29	0x3eebf8d0	0.46088266
30	0x3e88978e	0.26678127
31	0x3e91b30a	0.28456908

mod.7.weight f4 [32, 32, 3]
0	0xbd09ba18	-0.03362474
1	0xbdae726d	-0.08517919
2	0xbd4da620	-0.050207257
3	0xbd8eb81e	-0.06968711
4	0x3ddb36e0	0.10703826
5	0x3d0e0fe7	0.034683134
6	0xbd0b7fb7	-0.034057345
7	0xbce05003	-0.027381903
8	0xbd5156bc	-0.051108107
9	0xbc8e987b	-0.017406693
10	0xbd95c634	-0.07313195
11	0xbd0e5fa2	-0.03475917
12	0x3dc4aff3	0.09603872
13	0xbd2b1efb	-0.041777592
14	0xbdbcc8a6	-0.09217958
15	0x3dc4c9d8	0.09608811
16	0x3c49be8a	0.012313494
17	0xbdbf5230	-0.09341848
18	0x3cbc7c45	0.023008475
19	0x3db1d627	0.086834244
20	0x3c8d7813	0.01726917
21	0x3caec8b0	0.02133593
22	0xbdee2a37	-0.116291456
23	0xbe0ab6aa	-0.13546243
24	0x3c0bd088	0.008533604
25	0x3dc35aa7	0.09538775
26	0x3d108461	0.035282496
27	0xbbb9f2ab	-0.00567468
28	0xbdcf6ef5	-0.10128585
29	0xbd1ac4d4	-0.037785366
30	0x3c7feff1	0.015621171
31	0x3dab1a15	0.08354584
32	0xbca8659e	-0.020556267
33	0x3ceb48ca	0.028721232
34	0x3d35d862	0.04439581
35	0xbd19c620	-0.037542462
36	0xbd1e031c	-0.038577184
37	0xbd32e991	-0.043679778
38	0x3c8a00c2	0.016846064
39	0xbd1b1df4	-0.037870362
40	0x3cda975e	0.026683506
41	0xbdff0e1e	-0.124538645
42	0x3da37c0e	0.07982646
43	0xbd4b0ea2	-0.0495745
44	0xbd73bca8	-0.05950609
45	0x3cab0b08	0.020879284
46	0xbd6ca912	-0.057778426
47	0x3cf5b7de	0.029994901
48	0x3ddf11b8	0.108920515
49	0x3c83edca	0.016104598
50	0xbc62a1e0	-0.013832539
51	0x3d97d076	0.07412808
52	0x3cb21f2e	0.021743383
53	0x3cb3793b	0.021908393
54	0x3de0c288	0.10974604
55	0x3d8a9597	0.06766813
56	0xbdafabd6	-0.08577697
57	0xbd45c22f	-0.04828089
58	0xbd2d9145	-0.042374868
59	0x3d10b091	0.035324637
60	0x3cd2823b	0.025696864
61	0x3d5a99f2	0.05336947
62	0xbc66a9d1	-0.014078573
63	0xbccfcbd4	-0.025365748
64	0xbccd6c4f	-0.02507606
65	0x3c442479	0.011971586
66	0xbde98954	-0.114031464
67	0x3c154bd7	0.00911232
68	0xbda82952	-0.08211006
69	0xbd4c052e	-0.049809627
70	0x3ddaed40	0.10689783
71	0x3c9f61a2	0.019455735
72	0x3d05973c	0.03261493
73	0xbc91b71a	-0.017787505
74	0x3cf4248f	0.029802589
75	0x3b835968	0.004008461
76	0xbd00ca1f	-0.031442758
77	0x3ccc987f	0.02497506
78	0x3dc6e9bc	0.0971255
79	0xbdc5109d	-0.09622309
80	0xbc2afb12	-0.010435836
81	0x3cb4978b	0.022044918
82	0xbdacb167	-0.08432274
83	0x3dbad153	0.09121957
84	0x3d812efc	0.0630779
85	0x3dba22b5	0.09088651
86	0xbdbbdd22	-0.09173037
87	0x3d7a7efd	0.06115626
88	0xbd3a6875	-0.045509774
89	0x3d95847f	0.07300662
90	0xbd9bbac4	-0.07603982
91	0x3da21ffd	0.079162575
92	0x3db1d6d0	0.0868355
93	0x3ce7d0c3	0.028297788
94	0xbd3784e8	-0.044804484
95	0x3c6cfb0d	0.014464152
96	0x3c846ae4	0.01616425
97	0x3dec15f3	0.11527624
98	0xbda8a261	-0.08234096
99	0x3d5affcb	0.0534666
100	0x3d990320	0.07471299
101	0xbdf6ae1c	-0.120449275
102	0x3ce8f8b7	0.028438909
103	0x3d6b32ab	0.057421368
104	0x3d65849e	0.056034677
105	0xbd846291	-0.064641126
106	0xbd8c3f5c	-0.06848022
107	0x3d3a1900	0.045433998
108	0x3d44af8a	0.04801897
109	0xbda0e3a0	-0.07855916
110	0x3dc69e59	0.09698171
111	0xbdbba71b	-0.09162732
112	0xbd38d8c8	-0.045128614
113	0x3d872281	0.06598378
114	0xbdd1add7	-0.102382354
115	0xbc29268c	-0.010324132
116	0xbd6ac27b	-0.057314377
117	0x3d316cd6	0.043316685
118	0xbd3d353c	-0.046193346
119	0xbd80c822	-0.06288172
120	0xbb0548f5	-0.0020337675
121	0xbd5271d6	-0.051378094
122	0x3d73c826	0.05951705
123	0xbc5f0d8f	-0.013614072
124	0x3cbcb0a9	0.023033457
125	0xbd88388c	-0.066514105
126	0xbb8bbfd8	-0.004264813
127	0xbc13c889	-0.009019979
128	0xbcba8c14	-0.022771873
129	0xbdcb3253	-0.09921708
130	0x3d862156	0.06549327
131	0xbdc648ef	-0.0968188
132	0xbd5052b8	-0.050860137
133	0x3da49763	0.08036687
134	0xbcc372b4	-0.023858406
135	0x3d360545	0.04443862
136	0x3d157dd5	0.036496956
137	0xbd738f19	-0.05946264
138	0x3c81acc7	0.015829457
139	0x3d50092b	0.050789993
140	0x3cb6dad7	0.022321148
141	0x3db66810	0.08906567
142	0xbda5a6f5	-0.08088485
143	0x3db1ad16	0.08675592
144	0x3dbc595b	0.09196731
145	0xbda9bbbb	-0.0828776
146	0x3d369b4b	0.044581693
147	0xbc71f2ae	-0.014767332
148	0xbdbe00e7	-0.09277516
149	0x3dbeeb51	0.09322227
150	0x3e2821de	0.1641917
151	0xbd00ed4e	-0.03147631
152	0x3dccd811	0.10002149
153	0xbd6877fa	-0.056755044
154	0x3d9a2288	0.075261176
155	0x3ce1e290	0.027573854
156	0x3d7546a5	0.059881825
157	0xbd29ecf3	-0.041485738
158	0x3d818ae4	0.063253194
159	0x3c1327c0	0.008981645
160	0xbd387b7d	-0.045039643
161	0xbd980829	-0.074234314
162	0x3d124b7b	0.035716515
163	0xbc49ac4d	-0.012309146
164	0xbd639642	-0.05556322
165	0x3be49791	0.006976076
166	0xbdb87fde	-0.09008764
167	0x3d108552	0.035283394
168	0xbcd325ec	-0.025774918
169	0xbd7673e4	-0.060169116
170	0xbca2e34d	-0.019883776
171	0x3d5b0bcf	0.05347806
172	0x3d013000	0.031539917
173	0xbd01ed23	-0.03172029
174	0x3cc98181	0.024597885
175	0xbd6fabd7	-0.05851349
176	0xbc86533f	-0.016397117
177	0x3db859d6	0.0900151
178	0x3d139875	0.036034066
179	0xbd8471cc	-0.064670175
180	0xbc4d335d	-0.012524453
181	0xbd601e48	-0.05471638
182	0xbdbb2dbb	-0.09139582
183	0x3e089fc0	0.1334219
184	0xbd96454e	-0.073374376
185	0x3c1b6b51	0.009486035
186	0xbd8a92f7	-0.067663126
187	0x3d4caa19	0.049966905
188	0x3db600b7	0.08886855
189	0xbdbfb6eb	-0.09361061
190	0xbdc35709	-0.09538085
191	0xbbdbc40e	-0.006706721
192	0xbd1f35af	-0.038869556
193	0xbd5786a1	-0.052618627
194	0x3c5ee337	0.013603977
195	0xbe141285	-0.1446019
196	0xbd4c25f2	-0.049840875
197	0xbd43e8ac	-0.047829315
198	0xbd94510d	-0.07242022
199	0xbda3c846	-0.079971835
200	0xbcc1c627	-0.023654057
201	0x3c849235	0.016182998
202	0x3daa388e	0.08311568
203	0x3d4df1e7	0.050279524
204	0x3dbaeb44	0.091269046
205	0x3d4a2c87	0.04935887
206	0xbd77ab00	-0.060465813
207	0x3db3c87a	0.08778472
208	0x3d8d9fed	0.06915269
209	0x3caf341a	0.021387149
210	0x3d0e482f	0.03473681
211	0x3da607ec	0.0810698
212	0xbd9012df	-0.070348494
213	0x3d8232e0	0.0635736
214	0xbd3a09ac	-0.04541938
215	0x3daa4b20	0.0831511
216	0x3d0dbe0b	0.034605067
217	0x3db85d9f	0.09002232
218	0xbc4edfb6	-0.012626579
219	0xbd54d3af	-0.05195969
220	0x3dc2d5fd	0.09513471
221	0xbd10f604	-0.03539087
222	0x3d884209	0.0665322
223	0x3de6884a	0.11256464
224	0xbcd4e585	-0.02598835
225	0xbcce573a	-0.025188077
226	0xbc2b7436	-0.010464719
227	0x3d22c2ed	0.039736677
228	0xbdb9a312	-0.09064306
229	0xbd5175d6	-0.051137768
230	0xbcc3522e	-0.023842897
231	0xbd1cb206	-0.038255714
232	0xbdb9eaa3	-0.090779565
233	0xbcbd85d3	-0.023135101
234	0x3cd49bc2	0.025953177
235	0x3dfd5631	0.12369955
236	0x3d44db19	0.04806051
237	0xba6ab6aa	-0.00089536107
238	0x3ca40c18	0.020025298
239	0x3c5bde89	0.013419756
240	0x3d29154b	0.041280072
241	0x3d4323b6	0.04764148
242	0xbd7b57e4	-0.061363116
243	0x3c882d55	0.016623178
244	0x3c8ce759	0.017200159
245	0xbcebcde4	-0.0287847
246	0x3d76841b	0.06018458
247	0x3b90c5e0	0.00441812
248	0x3c71ebf9	0.014765733
249	0xbc550c7c	-0.013003465
250	0x3df2c38f	0.11853706
251	0x3db533fe	0.08847807
252	0x3da2600b	0.07928475
253	0xbca5e4eb	-0.020250758
254	0x3d79d845	0.060997266
255	0x3d43d0cb	0.047806542

mod.8.weight f4 [32]
0	0x3f7e1e16	0.9926466
1	0x3f7d707e	0.98999774
2	0x3f80398b	1.0017561
3	0x3f7eea73	0.9957649
4	0x3f7f1a54	0.9964955
5	0x3f84e801	1.0383302
6	0x3f81d3e4	1.0142789
7	0x3f7de159	0.9917198
8	0x3f821d7f	1.0165251
9	0x3f81d648	1.0143518
10	0x3f810dc0	1.0082321
11	0x3f827cdb	1.0194353
12	0x3f7ce3e9	0.98785263
13	0x3f7d6ec5	0.98997146
14	0x3f829a8c	1.0203414
15	0x3f7a4943	0.9776804
16	0x3f7ff196	0.99978006
17	0x3f7e4846	0.9932903
18	0x3f756e32	0.9587127
19	0x3f7d3dcf	0.9892244
20	0x3f80ff5f	1.0077933
21	0x3f7fe068	0.9995179
22	0x3f844b29	1.0335437
23	0x3f803875	1.0017229
24	0x3f7e3cea	0.993117
25	0x3f736e3a	0.9509007
26	0x3f83a7bc	1.0285563
27	0x3f813a3d	1.0095898
28	0x3f7c1846	0.9847454
29	0x3f7a1dab	0.9770152
30	0x3f80e033	1.006842
31	0x3f7f7a45	0.99795943

mod.8.bias f4 [32]
0	0xbc32c29f	-0.010910659
1	0xbbfa8b01	-0.007645965
2	0xbd39fe7e	-0.04540872
3	0xbc09422b	-0.008377592
4	0xbd466a71	-0.048441354
5	0x3d4d5051	0.050125424
6	0x3d11844a	0.03552655
7	0x3d2ccf6f	0.04219001
8	0x3d7e3675	0.062063653
9	0xbc932b65	-0.017965028
10	0x3b8e5c41	0.0043444936
11	0x39c01eca	0.00036644033
12	0x3ca63be7	0.020292236
13	0x3bc2816e	0.0059358394
14	0x3b85efff	0.0040874477
15	0xbcf2aeaf	-0.029624311
16	0xbcfa070f	-0.030520944
17	0x3b5e94db	0.0033963236
18	0x3bf44f51	0.0074557443
19	0xbccebc8c	-0.02523639
20	0xbc59aa99	-0.013285303
21	0x3c012300	0.00788188
22	0x3bb306de	0.005463465
23	0xbd1b2393	-0.037875723
24	0xbc98c659	-0.018649267
25	0xbc92fe01	-0.017943384
26	0x3b04011b	0.002014226
27	0x3cc5d467	0.024149133
28	0x3c24c75f	0.010057299
29	0xbd1e142d	-0.03859346
30	0xbb77a4f9	-0.003778754
31	0xbd26a2c3	-0.040682565

mod.8.running_mean f4 [32]
0	0xbd1f4888	-0.03888753
1	0xbce2041b	-0.027589848
2	0x3e7aaa53	0.24479036
3	0x3dfc2710	0.12312138
4	0x3ec3b668	0.38225102
5	0x3eabcfbf	0.33556935
6	0xbdd97d6a	-0.10619624
7	0xbda53a54	-0.08067766
8	0xbedf426f	-0.43605372
9	0x3e8903b6	0.26760644
10	0x39c28003	0.0003709794
11	0xbd4c4a1f	-0.049875375
12	0x3d37983b	0.044822913
13	0xbce0e290	-0.027451783
14	0x3e44b9ad	0.19211455
15	0x3ec42bcf	0.38314673
16	0x3e822338	0.25417495
17	0x3dc57cd7	0.09642952
18	0xbd878aa4	-0.066182405
19	0xbe5b0fff	-0.21392821
20	0x3e95d65d	0.2926511
21	0xbed72b19	-0.42025068
22	0x3dfb2387	0.12262636
23	0xbe972666	-0.29521483
24	0x3f0fb6a4	0.5613806
25	0x3e30f89d	0.17282338
26	0xbe5ce57c	-0.21571916
27	0xbe1a65b9	-0.15077867
28	0xbe968652	-0.29399353
29	0x3ee2cd95	0.44297472
30	0xbe407f63	-0.18798594
31	0x3eacbcd9	0.3373783

mod.8.running_var f4 [32]
0	0x3e9acb06	0.3023302
1	0x3e44e033	0.1922615
2	0x3e8123ea	0.25222713
3	0x3e2e1e02	0.17003635
4	0x3ea366cf	0.31914374
5	0x3ec2bb9a	0.38033754
6	0x3e19716f	0.14984678
7	0x3e5b3493	0.21406774
8	0x3e552ff0	0.20819068
9	0x3f26375d	0.6492823
10	0x3ec1f858	0.37884784
11	0x3e98912c	0.29798257
12	0x3e9611e1	0.29310516
13	0x3dc5aab2	0.09651698
14	0x3f1cb2e0	0.6121044
15	0x3f65510f	0.8957681
16	0x3ea5127e	0.3224067
17	0x3f4437bb	0.7664754
18	0x3ea0d0eb	0.31409392
19	0x3dff6a2d	0.12471423
20	0x3f6a3a21	0.9149495
21	0x3e80c5bc	0.2515086
22	0x3f206945	0.6266063
23	0x3f09a0a2	0.5376073
24	0x3fa8b8cd	1.3181397
25	0x3e2ef9f0	0.17087531
26	0x3ea833b4	0.32851946
27	0x3f2d3b54	0.6766865
28	0x3ea759ba	0.32685643
29	0x3f34a012	0.7055675
30	0x3ee99a22	0.45625407
31	0x3ecb69af	0.39729068

mod.10.weight f4 [32, 32, 3]
0	0x3db9a7e3	0.09065225
1	0x3d5901b1	0.05298013
2	0xbcfaa57a	-0.030596483
3	0xbcccfe73	-0.025023675
4	0x3c6e0344	0.014527146
5	0x3dd2f935	0.10301439
6	0x3af80951	0.0018923675
7	0xbdab9f77	-0.08380025
8	0xbd701ac6	-0.058619283
9	0x3dd7b9e0	0.105335
10	0x3d359c85	0.04433872
11	0xbbba952d	-0.0056940527
12	0x3ccb7d1a	0.024839927
13	0xbd1a089a	-0.03760586
14	0x3ce93977	0.028469784
15	0x3a08a9d3	0.0005213294
16	0xbda86fd9	-0.08224458
17	0xbd2f3209	-0.042772327
18	0x3d6842e9	0.056704435
19	0x3c80f0bd	0.015739793
20	0x3de55dfd	0.111995675
21	0x3d8a53ba	0.06754251
22	0x3db2598b	0.08708485
23	0x3d4c3732	0.049857326
24	0x3b991bec	0.004672518
25	0xbb52f574	-0.0032189758
26	0xbd985f83	-0.074400924
27	0xbd97580e	-0.07389842
28	0x3d49d212	0.049272604
29	0xbd536f76	-0.05161997
30	0xbc9b6416	-0.018968623
31	0x3db8a092	0.09015001
32	0xbd7fff6b	-0.062499445
33	0x3d86239b	0.0654976
34	0xbdf2ecf4	-0.118616015
35	0xbc0d6f5f	-0.00863251
36	0xbd2ce5c3	-0.042211305
37	0xbda90c00	-0.08254242
38	0x3cba0bc3	0.022710687
39	0x3de5f043	0.11227467
40	0xbc540e44	-0.012942854
41	0x3be5301e	0.0069942614
42	0x3d4ae7db	0.04953752
43	0x3cfb58c2	0.030681971
44	0x3d86b3fa	0.065772966
45	0xbd3f0efc	-0.04664515
46	0xbc12e5a0	-0.00896588
47	0x3cf4e0ae	0.029892292
48	0xbc1bf724	-0.009519372
49	0x3da8a990	0.082354665
50	0xbdaa2a32	-0.08308829
51	0xbd5a0982	-0.053231724
52	0xbd56c683	-0.05243541
53	0x3cb2f476	0.021845084
54	0x3da9fb20	0.082998514
55	0x3c2d67ff	0.010583877
56	0xbc876625	-0.016528198
57	0xbd88adfa	-0.066738084
58	0xbd168590	-0.03674847
59	0x3d4f7d3a	0.050656535
60	0x3c855e5b	0.016280344
61	0x3abf26f6	0.0014583755
62	0x3c7203c8	0.014771409
63	0xbd999cdf	-0.07500624
64	0x3c195839	0.009359413
65	0xbd14536f	-0.03621238
66	0xbd68e2d1	-0.056856934
67	0x3dc75dea	0.097347096
68	0xbdd3b50f	-0.103372686
69	0xbdf7dffd	-0.12103269
70	0xbd0a8893	-0.033821654
71	0x3d2320b2	0.039826103
72	0x3ccfdef3	0.025374865
73	0x3cdbb737	0.026820762
74	0xbda7b536	-0.0818886
75	0xbd9d4230	-0.0767864
76	0xbc8866c0	-0.016650558
77	0x3d9ce2f8	0.07660478
78	0x3c5ebfce	0.0135955345
79	0xbc8f7537	-0.017511947
80	0x3d105304	0.03523542
81	0xbc4720da	-0.0121538285
82	0x3d846cef	0.0646609
83	0xbbe2dbf0	-0.0069231912
84	0xbdc744f1	-0.097299464
85	0xbc8a69c5	-0.016896138
86	0xbda256a6	-0.07926683
87	0x3c7a5c08	0.015280731
88	0xbcde3e93	-0.027129447
89	0x3d9b8e98	0.07595557
90	0x3d41c752	0.047309227
91	0x3b8dcb0d	0.004327184
92	0xbdc5b262	-0.096531644
93	0x3de23f3e	0.11047219
94	0x3cfc9151	0.030831011
95	0xbd1e5238	-0.03865263
96	0xbd26c5fd	-0.04071616
97	0xbcfc4205	-0.0307932
98	0x3ccad384	0.024759062
99	0x3c0c8c3b	0.008578355
100	0x3cc9ebef	0.024648635
101	0xbd3bb386	-0.045825504
102	0x3d6d532b	0.057940643
103	0xbdabe82b	-0.08393892
104	0x3daa1485	0.08304695
105	0x3cd9c0ab	0.026581129
106	0x3d1440ac	0.03619449
107	0x3d4f1a97	0.050562467
108	0x3dbb543f	0.09146928
109	0x3dd5557b	0.10416695
110	0xbd70f042	-0.058822878
111	0xbcbbda33	-0.022931194
112	0xbdf869d6	-0.121295616
113	0xbd9b7f8e	-0.075926885
114	0x3b4fddb1	0.0031717832
115	0xbd897211	-0.067112096
116	0x3d004de4	0.031324282
117	0x3c6082bf	0.013703047
118	0x3c49553e	0.01228839
119	0xbd49487c	-0.049141392
120	0x3cd45b20	0.025922358
121	0x3d17702c	0.03697221
122	0xbd2a34b4	-0.041554168
123	0xbd3f9581	-0.046773437
124	0x3e278bd1	0.1636193
125	0x3d718650	0.05896598
126	0x3874645e	5.8267608e-05
127	0xbd84e383	-0.06488707
128	0xbdb10a83	-0.08644583
129	0xbdf722d5	-0.120671906
130	0xbdbf953b	-0.09354635
131	0xbdc1ac05	-0.09456638
132	0x3b87cae3	0.004144059
133	0xbdbb260c	-0.09138116
134	0xbd88f4cb	-0.066873156
135	0x3d0b372e	0.03398817
136	0xbd9e8901	-0.07740975
137	0x3cd1d435	0.025613884
138	0x3cba7671	0.022761555
139	0x3d85a92c	0.065264076
140	0xbcb9b0db	-0.02266734
141	0x3cf8e639	0.030383216
142	0xbd0185c3	-0.031621706
143	0x3dfd01f3	0.123538874
144	0x3daeaada	0.08528681
145	0xbd38139c	-0.044940576
146	0x3da2d31a	0.07950421
147	0xbd359259	-0.04432902
148	0xbd22eed5	-0.03977855
149	0x3c31a317	0.010842106
150	0xbc618164	-0.013763759
151	0xbd9fe998	-0.07808226
152	0xbd968e33	-0.07351341
153	0x3bdaf195	0.006681631
154	0xbd5ea92e	-0.05436056
155	0xbd788a54	-0.060678795
156	0xbd7358d3	-0.05941088
157	0x3dd7676a	0.105177715
158	0x3d459ed0	0.04824716
159	0x3d23c142	0.039979227
160	0x3d243c0a	0.04009632
161	0xbc66850f	-0.01406981
162	0x3b86984c	0.0041075107
163	0x3d258706	0.04041197
164	0x3de17705	0.11009029
165	0xbd10b9b9	-0.03533337
166	0xbb3e0c42	-0.0028999005
167	0xbc674aa5	-0.014116918
168	0x3dc11ff0	0.0942992
169	0xbd821540	-0.06351709
170	0x3dbdf88b	0.092759214
171	0xbd5ae372	-0.053439565
172	0x3d60939e	0.05482828
173	0xbd43be4e	-0.04778891
174	0x3df4a8ae	0.119462356
175	0xbcd8b43b	-0.026453128
176	0xbc3ba9a8	-0.011454023
177	0xbdb5c3ad	-0.08875213
178	0x3dd74e77	0.10513013
179	0x3d745846	0.059654497
180	0x3d348bda	0.044078685
181	0xbcc75707	-0.02433349
182	0xbd09cc99	-0.033642385
183	0x3b917c49	0.004439865
184	0xbd412a16	-0.047159277
185	0x3c4296f8	0.011876814
186	0xbdbdac2c	-0.09261355
187	0x3cbac337	0.022798164
188	0xbd1bdb3c	-0.038050875
189	0x3df293e0	0.11844611
190	0x3de6f565	0.11277274
191	0xbd4f83db	-0.050662857
192	0x3a596b05	0.000829384
193	0x3c5bad6d	0.013408047
194	0x3c439a03	0.011938575
195	0xbde1dda0	-0.110286
196	0x3dc6db9f	0.09709858
197	0x3dc9391a	0.098253444
198	0xbd3019ab	-0.04299323
199	0x3c1f6d04	0.009730581
200	0x3c6ad5cb	0.014333199
201	0x3cedc9cd	0.02902689
202	0x3dbc7191	0.092013486
203	0x3c878a1e	0.016545352
204	0x3d2ae6aa	0.041723885
205	0x3d2fc8a4	0.042915955
206	0xbd14605d	-0.03622471
207	0x3acd75ba	0.0015675344
208	0xbd807937	-0.0627312
209	0x3d12948e	0.035786204
210	0x3dae0a90	0.084981084
211	0x3dd4fd63	0.10399892
212	0x3d6da954	0.058022812
213	0xbcdeb1a5	-0.027184317
214	0x3c10f2ff	0.008846997
215	0xbc4f02e1	-0.012634964
216	0x3c4088b4	0.011751343
217	0x3dfd9466	0.123818204
218	0xbd0cbbaf	-0.034358677
219	0x3cd7f6f4	0.026362874
220	0xbd1900d7	-0.037354317
221	0xbd4e8615	-0.05042084
222	0xbdc1eb3e	-0.09468697
223	0xbd5910fe	-0.05299472
224	0xbda84bbf	-0.082175724
225	0xbcffe6a6	-0.031237911
226	0x3d8fd938	0.07023853
227	0xbd8ac26d	-0.06775365
228	0xbd08c8c0	-0.033394575
229	0xbdba9ba3	-0.091117166
230	0xbdbf3307	-0.093359046
231	0xbd822c09	-0.06356055
232	0xbdbed825	-0.0931857
233	0xbc6034ec	-0.013684493
234	0xbd75fcc8	-0.060055524
235	0x3d272dad	0.040815044
236	0xbd2a9845	-0.04164912
237	0x3c86f254	0.016472973
238	0xbcb3fee9	-0.021972137
239	0xbd98e055	-0.07464663
240	0xbdcd33a5	-0.10019616
241	0x3d60dbdc	0.054897174
242	0x3d9bb70c	0.07603273
243	0xbd428a26	-0.04749503
244	0x3dbd4575	0.092417635
245	0xbd89854a	-0.06714876
246	0xbbe8d06b	-0.0071049235
247	0xbb7e0137	-0.0038758048
248	0xbdccf702	-0.100080505
249	0xbccc2a9f	-0.024922667
250	0x3dc8eaf2	0.09810437
251	0x3c0ef97a	0.008726472
252	0xbd619dd1	-0.055082146
253	0xbdb95936	-0.09050219
254	0x3d04bd84	0.0324073
255	0x3cf510f9	0.02991532

mod.11.weight f4 [32]
0	0x3f785f44	0.97020364
1	0x3f80acb3	1.0052704
2	0x3f80e91d	1.007114
3	0x3f7b156f	0.9807958
4	0x3f78b016	0.97143686
5	0x3f80edd1	1.0072576
6	0x3f830162	1.0234797
7	0x3f755735	0.9583619
8	0x3f8087d2	1.0041449
9	0x3f7f93f0	0.9983511
10	0x3f81fa11	1.0154439
11	0x3f8236f8	1.0173025
12	0x3f7fd4de	0.99934185
13	0x3f78c27b	0.97171754
14	0x3f812c22	1.0091593
15	0x3f83c2ef	1.0293864
16	0x3f7f50c7	0.9973263
17	0x3f7d51c7	0.9895291
18	0x3f82fc9a	1.0233338
19	0x3f7e5a13	0.9935619
20	0x3f7e24de	0.99275005
21	0x3f7fe67b	0.9996106
22	0x3f80baf5	1.0057055
23	0x3f7399c6	0.95156515
24	0x3f7da4a0	0.9907932
25	0x3f840efb	1.0317072
26	0x3f808c26	1.004277
27	0x3f805c27	1.0028123
28	0x3f7ac418	0.97955465
29	0x3f7eb02b	0.9948756
30	0x3f8043c4	1.002068
31	0x3f7ec555	0.99519855

mod.11.bias f4 [32]
0	0xbc6201d3	-0.01379438
1	0x3bc76361	0.006084845
2	0x3be4f0c7	0.0069867107
3	0x3c74a479	0.014931791
4	0xbc925ed1	-0.017867478
5	0xbd381768	-0.044944197
6	0x3d65d1c2	0.056108244
7	0xbb03b6b0	-0.0020097904
8	0x3c4543e1	0.012040109
9	0x3ba43405	0.005011084
10	0x3b804f4a	0.003915702
11	0x3d3e6566	0.04648342
12	0xbcd97c42	-0.026548509
13	0x3cd047eb	0.025424918
14	0x3ce809f2	0.028325055
15	0x3d0f8f19	0.035048578
16	0x3cf60b15	0.030034581
17	0x3bd41b38	0.0064729713
18	0x3d4bdc6d	0.04977076
19	0x3bc54e03	0.0060212626
20	0xbbb18ffe	-0.0054187765
21	0x3b11937f	0.0022213159
22	0x3c41992f	0.011816307
23	0xbc9a925b	-0.018868616
24	0x3c9f670d	0.019458318
25	0x3d33fd4d	0.04394274
26	0xb987d716	-0.00025909458
27	0xbb072894	-0.0020623552
28	0xbc125168	-0.008930542
29	0x3bcac49c	0.0061879884
30	0x3d82fd5b	0.0639598
31	0xb9946c44	-0.00028309424

mod.11.running_mean f4 [32]
0	0x3b42abf9	0.0029704554
1	0x3cd2433d	0.025666827
2	0xbdee0f2b	-0.11623987
3	0xbdaf922e	-0.085728034
4	0xbefd8b35	-0.4952027
5	0x3cd68208	0.02618505
6	0xbee12086	-0.43970126
7	0xbf10a410	-0.5650034
8	0x3de216a9	0.11039478
9	0xbd1462be	-0.03622698
10	0x3e509ce1	0.20372345
11	0xbe1e312f	-0.1544845
12	0x3ed13ab3	0.40865096
13	0xbea99402	-0.33120733
14	0xbe03414b	-0.12817876
15	0x3c3bb751	0.01145728
16	0xbe2173ed	-0.15766878
17	0x3f158826	0.5841087
18	0xbea266ae	-0.31718963
19	0x3ea4cd21	0.3218775
20	0x3dd74e61	0.105129965
21	0x3e8da7c4	0.27667058
22	0xbde06f40	-0.10958719
23	0x3e104e0d	0.14092274
24	0x3e1c8a17	0.15287052
25	0xbcf45ae8	-0.029828504
26	0x3e15a6eb	0.14614455
27	0x3e29f7b1	0.16598393
28	0xbeb37f67	-0.35058138
29	0xbe1e6bc5	-0.15470798
30	0xbeb6613f	-0.35621068
31	0x3e4b2ef9	0.19842137

mod.11.running_var f4 [32]
0	0x3e4fb531	0.20283963
1	0x3f2b6c95	0.6696256
2	0x3dcf4388	0.101203024
3	0x3e440a04	0.19144446
4	0x3f0f5ec0	0.5600395
5	0x3e917609	0.28410366
6	0x3fa0fe57	1.2577618
7	0x3f477692	0.779153
8	0x3e806b6b	0.25081953
9	0x3e1a921d	0.150948
10	0x3f225946	0.6341747
11	0x3e71c886	0.2361165
12	0x3f4a8d12	0.79121506
13	0x3f5059cf	0.8138704
14	0x3e64795d	0.22311921
15	0x3e1679d2	0.14694908
16	0x3ee7c3e5	0.45266643
17	0x3f6009dd	0.8751505
18	0x3f12b819	0.5731216
19	0x3edc287e	0.42999643
20	0x3f20c492	0.6279994
21	0x3ed1be37	0.40965435
22	0x3e8893df	0.26675317
23	0x3e935bbf	0.28780934
24	0x3f04a2e5	0.5181106
25	0x3e2028f7	0.15640627
26	0x3e4c1778	0.19930828
27	0x3f3584dc	0.7090585
28	0x3f4d89ff	0.8028869
29	0x3e141393	0.14460592
30	0x3e6665c9	0.22499765
31	0x3f0438ba	0.5164906
